ENGINE/lightning_logs/version_0/checkpoints/epoch=5-step=179.ckpt (torch, 263169 bytes, 40 tensors)

rnn.weight_ih_l0 f4 [128, 5]
000000 a2 d7 00 be 2b c4 21 be 00 90 a9 b5 72 5b 3b be
       -0.12582257 -0.15797488 -1.2633391e-06 -0.18296602
000010 ab 1c a0 3d 8a 59 83 bd 9a 3f 84 3e 2d c8 cd 3d
       0.07817968 -0.064135626 0.25829774 0.10047946
000020 ea 0b e2 3d 0d 1f 6b be 9e b8 3b be 04 f1 f2 bb
       0.11037429 -0.22961064 -0.18332145 -0.007413985
000030 59 ab 08 3e 0a 5a 4a be 91 43 39 3d 33 04 2a 3e
       0.13346614 -0.1976091 0.045230452 0.16603164
000040 f9 b1 76 3e 7d 00 82 3e 20 0b 61 3d 21 da 6d bd
       0.24091329 0.25390998 0.05494225 -0.058069352
000050 ce f1 ed bd 2c c2 89 3e 1e e4 7a 3e cd 25 09 3d
       -0.11618386 0.26905954 0.24501082 0.033483315
000060 97 01 01 be fc 70 80 be b7 89 ff 3e 2c 50 39 3e
       -0.12598263 -0.250862 0.49909756 0.1809699
000070 24 9e 83 be a2 de e5 bd 2a 65 81 3d 57 b9 0d be
       -0.2570659 -0.112241045 0.06318124 -0.13840233
000080 be f9 99 3a c8 3e 91 3d 50 02 50 bc 8a 32 95 bd
       0.0011747403 0.07092053 -0.012695864 -0.0728503
000090 cb a4 5f 3e 86 69 63 3e c6 5d f3 3d 24 09 79 be
       0.21840207 0.22208223 0.1188312 -0.24319893
0000a0 30 98 9d bd 7c 30 e1 3d 2b 09 6c 3e c6 f8 33 bd
       -0.07695043 0.10995576 0.23050372 -0.04393842
0000b0 ec ab 0b be 16 0d b4 3d d2 ef 97 3e d7 48 68 3e
       -0.13639802 0.087915584 0.29675156 0.22684036
0000c0 28 8c 34 be d2 be 04 3e 2b 06 66 be 48 00 25 3e
       -0.1763159 0.12963417 -0.2246329 0.16113389
0000d0 88 75 d0 3d 01 25 57 bc fe 79 82 be 39 33 3d be
       0.10178667 -0.013131381 -0.25483698 -0.18476571
0000e0 96 3c 3b 3d d1 c1 0f be 0e d9 b0 bd 30 15 d6 3c
       0.045712076 -0.14038779 -0.0863515 0.02613315
0000f0 ae 35 a9 3d b4 82 3f 3d 4c ed d9 3d 62 29 87 bc
       0.08262192 0.046755508 0.10640964 -0.016499225
000100 07 b3 46 be 94 b6 62 bd 1c f6 51 3d 13 9c f9 3d
       -0.19404231 -0.0553499 0.0512601 0.12187972
000110 60 30 9c 3d ce 82 1b be a2 41 78 bd bf a7 67 3e
       0.07626414 -0.15186617 -0.060609467 0.22622584
000120 ab 25 67 3d 77 e0 ba bd 94 f0 39 be 74 fd 50 be
       0.056432407 -0.091248445 -0.1815818 -0.20409185
000130 a6 59 87 3e 7e c7 4f 3e cb 34 18 bb 1b 7a cb bd
       0.26435584 0.20290944 -0.0023224826 -0.09935399
000140 2e f1 66 bd fc 1e 13 3e 24 4b 38 3c 39 c5 3e 3d
       -0.05638235 0.14367288 0.011248384 0.046574805
000150 f9 c2 3a 3d de 77 63 bd 3a 52 39 3e 59 65 27 3e
       0.045596097 -0.055534236 0.18097773 0.16347255
000160 be e7 0d 3e 6a 11 29 bd 46 6c f5 3d e0 17 d3 3d
       0.13857934 -0.041276373 0.11983542 0.10307288
000170 30 aa 5f bd 14 49 cf 3d ac ac 63 be 94 d3 f0 3c
       -0.054605663 0.101213604 -0.22233838 0.029397763
000180 c1 ca a9 3e ea 6e a0 3e 92 db 3e bd ec 6c 39 be
       0.331625 0.3133462 -0.046596117 -0.18107957
000190 43 f2 1d 3e dc aa 2d 3d e4 cc 04 3e 89 f5 28 3e
       0.15424447 0.042399272 0.12968785 0.16499914
0001a0 3b 42 48 3c 02 b6 84 3e d4 e6 15 3e 69 80 89 3e
       0.012222822 0.2592011 0.14638835 0.26855782
0001b0 fa 8b b4 bc c0 c8 5b be 3e 12 48 bd 1a 5f 37 be
       -0.022039402 -0.21463299 -0.048845522 -0.17907372
0001c0 02 cd 07 bd d2 f0 bb 3d 26 de 14 be 5c 6b d5 be
       -0.033154495 0.09176792 -0.14537868 -0.4168347
0001d0 d2 94 c0 3e f2 3d 25 3e e0 55 fe be 2e 9c 47 3d
       0.3761354 0.16136912 -0.49674892 0.04873293
0001e0 84 e4 39 3e 8c 4e 64 3e d6 94 32 3e 71 62 9e bd
       0.18153578 0.22295588 0.17439589 -0.0773362
0001f0 87 b9 54 3c 88 85 bd bc d5 85 8a 3e bc 4c f2 3d
       0.012983686 -0.023134962 0.2705523 0.11831042
000200 02 a7 46 be ee 09 b4 bd 65 69 b5 3d 6c e5 21 be
       -0.19399646 -0.087909564 0.08857993 -0.15810174
000210 3d d3 0e 3e 7e 74 cc bd 28 fa a0 bd ca 55 fa 3d
       0.13947769 -0.099831566 -0.078602135 0.12223394
000220 0a 19 0e 3d a8 5d 80 3b 6b 87 3f 3e 5f 28 6b be
       0.034691848 0.0039174147 0.18704002 -0.22964619
000230 1c 14 2f be 40 e8 c7 bb f5 0e 60 3e ac c5 21 be
       -0.17097515 -0.0061006844 0.21880706 -0.15798062
000240 56 0e 77 3d 0e a3 10 bd 76 6d a5 3e 1e 41 df bb
       0.060316406 -0.03531175 0.32310075 -0.0068131825
000250 e6 3a 3f be 14 d7 64 be fc 65 82 be e9 ef 7f 3e
       -0.18674812 -0.22347671 -0.25468433 0.24993862
000260 00 e9 bf 3c a0 fb 29 be 16 8d 05 bc ca 0c 15 3e
       0.023426533 -0.16599894 -0.008151313 0.1455566
000270 ea cf 09 3d 2c 53 81 3c 06 5e cf 3a 3b e7 90 be
       0.033645548 0.01578673 0.0015820868 -0.28301415
000280 06 29 a7 bb 48 6b 37 3d d9 ab 41 bd c3 e8 f9 3d
       -0.005101326 0.044780046 -0.047283027 0.12202599
000290 84 33 d3 bc 7f 08 f6 3d 75 4d d1 3a d8 67 5d 3e
       -0.0257814 0.12013339 0.0015968519 0.21621644
0002a0 d0 73 bc bd 3f 93 ae bd 34 8d 0d be 67 30 9a 3c
       -0.09201777 -0.08524179 -0.13823396 0.018821908
0002b0 b2 c6 84 3e 13 98 9c bc aa 15 52 be 64 0e f3 3d
       0.25932842 -0.019115483 -0.20516077 0.11867979
0002c0 04 0d 07 3e 96 e5 c8 3c 5e 7f 91 3c 04 1e cc bd
       0.13188559 0.024523538 0.017760929 -0.099666625
0002d0 bc ea 40 3e 86 26 38 3d a2 ab 84 3e 95 3a 7b be
       0.18839544 0.044958614 0.25912195 -0.24534066
0002e0 65 70 b6 bc 06 36 90 be 8c 73 0d 3f da 56 09 3e
       -0.02227039 -0.28166217 0.55254436 0.13412037
0002f0 14 79 80 be c9 af 30 be f2 01 92 3d a6 69 df 3c
       -0.25092375 -0.17254557 0.07129277 0.027272057
000300 4d 96 3a be 50 64 a9 3d b4 02 f4 bd 54 74 d7 3d
       -0.18221398 0.08271086 -0.11914578 0.10520235
000310 3a 33 65 3e ec 7c 93 3e 20 91 59 3d 52 66 7a be
       0.22382823 0.28806245 0.053116918 -0.24453095
000320 ae c2 82 bd 1c 46 16 3d a5 f1 0b 3d 28 d5 24 3d
       -0.063847885 0.036687955 0.034165997 0.040242344
000330 d2 81 c3 bc 22 f0 eb 3d 57 c9 03 3e 7e bd 7c 3e
       -0.023865614 0.11520411 0.12869774 0.2468166
000340 58 77 8d bc d6 78 b6 bd dd 6a 80 be 9c 63 e3 3d
       -0.017268822 -0.089097664 -0.2508153 0.11102983
000350 3d 02 7e 3e 38 4a a7 be d0 61 c4 bd 20 b8 7e bd
       0.24805541 -0.32673812 -0.09588969 -0.062187314
000360 4e 67 33 bd 4b 60 17 3e d2 d5 1f 3d 44 96 11 3e
       -0.04379969 0.14782827 0.039022274 0.14217478
000370 bf b5 db bd c1 b6 ad bc fc de 83 3e 2a 1a 30 bd
       -0.10728025 -0.021205308 0.2575606 -0.042993702
000380 1c 1c eb bd 2c 00 8a 3d 5e d3 e8 3c 34 6a 8b 3e
       -0.11479971 0.06738314 0.0284211 0.27229464
000390 ea d4 d6 3d fd eb 64 be 88 7d 06 3e 8c f2 1a bb
       0.10489829 -0.22355647 0.13133824 -0.0023643104
0003a0 46 59 ec 3d 0a e2 fe 3d db 40 5f be 1c fe 01 be
       0.11540465 0.12445457 -0.21802084 -0.12694591
0003b0 92 47 f0 3e db c0 d9 3d bc c3 65 be cd 26 92 bd
       0.46929604 0.106324874 -0.22437948 -0.07136307
0003c0 70 4e ce bd be f0 8f 3d ac 55 60 3e df aa d8 bd
       -0.100735545 0.0702834 0.21907681 -0.10579466
0003d0 65 b4 62 be 6e 11 3f bd 8e 70 9b 3e 40 95 96 3e
       -0.22139128 -0.04664748 0.3035931 0.29410744
0003e0 62 80 f2 3c 52 f1 6a be 24 02 73 3e f0 c9 79 3d
       0.029602233 -0.22943619 0.23731285 0.0609836
0003f0 93 7f 76 bd 4c b5 b4 bd 72 b0 14 be 6c 7e 23 3d
       -0.060180258 -0.08823642 -0.14520434 0.039915487

rnn.weight_hh_l0 f4 [128, 32]
000000 4d 41 f0 bd be 94 a2 bd 73 04 ac 3d ec cf a0 bd
       -0.11731205 -0.079385266 0.08399286 -0.07852158
000010 20 75 1e 3e b0 79 bd 3d 9e 70 a2 bd 70 9a d7 bd
       0.15474367 0.09251726 -0.07931636 -0.105275035
000020 ec b9 c3 bd 46 70 f3 3d 10 2c d9 bb 56 b3 46 bc
       -0.09556946 0.11886649 -0.006627567 -0.012127718
000030 b5 5e 07 3e 2a 6c cd 3a 52 53 17 bd a8 3f 25 be
       0.13219722 0.0015672494 -0.036944695 -0.16137564
000040 c4 9f 3d be e1 03 d7 3d 8e 88 1b 3e a5 43 3e bd
       -0.18517977 0.10498787 0.1518881 -0.04645123
000050 44 fd c1 3d e0 68 19 3d 5a e3 31 3d 32 00 23 3d
       0.09472135 0.037453532 0.04342971 0.03979511
000060 d6 b4 06 3e 4e 0e aa 3d fa 15 84 3d 76 d6 a7 bc
       0.13154921 0.0830351 0.06449504 -0.020488005
000070 d4 09 96 bd 41 98 06 3e 14 20 c6 3b 20 bc fc 3d
       -0.07326093 0.13144018 0.0060463045 0.123405695
000080 fb 71 22 be 88 6e 8f bd 36 ed 09 3e d0 0f 83 be
       -0.15863793 -0.07003504 0.13469395 -0.25598
000090 3a 66 ab bc b0 2f 2d be 17 fa 37 3d 02 0e 98 3d
       -0.020922769 -0.16912723 0.04491624 0.07424547
0000a0 fa e8 a4 3d 0c 52 3a 3d 1b 8a d6 3d 25 b9 38 3e
       0.08052249 0.045488402 0.1047556 0.18039377
0000b0 e0 36 3d 3d e4 67 cc 3d 89 5b 98 3d 6e fd b3 3d
       0.04619491 0.09980753 0.07439334 0.08788572
0000c0 4a b7 76 3d 34 c6 0f 3d 50 9e a6 bd bd 63 79 bd
       0.06023339 0.03510113 -0.081356645 -0.060886133
0000d0 ec 6b 8d bd 2e 59 72 3e da ec f4 3c 5a 52 d4 bd
       -0.0690535 0.23666832 0.029898096 -0.1036727
0000e0 3a 0d 18 3e c4 1d df 3c 60 9e 13 be 90 55 d2 3b
       0.14848796 0.027235873 -0.14415884 0.0064188913
0000f0 9e cf 80 3d 1c c8 fe 3b 4a d1 be 3d 4c 64 19 3e
       0.062896 0.0077753197 0.093172625 0.14979666
000100 a6 e4 3f 3e a0 57 05 bd 45 99 34 3d f2 1f 3f be
       0.18739566 -0.03255427 0.04409148 -0.1866453
000110 c4 1f 30 3e bc c6 58 be 1e 51 32 be 21 06 ee bd
       0.17199618 -0.21169561 -0.17413756 -0.11622263
000120 50 26 ce 3c c6 72 f3 bd 4b 22 54 3d e8 8b e0 3d
       0.025164753 -0.11887126 0.051790517 0.10964185
000130 fd c5 17 be e3 65 64 3d ce 76 0b 3e d4 7f 0b be
       -0.1482162 0.05576123 0.13619539 -0.13622981
000140 94 51 58 3e 0e e2 80 be db 9b 24 3e a0 bb 12 3e
       0.2112487 -0.25172466 0.16075079 0.14329386
000150 08 27 02 3e e8 33 7d 3d 62 5e 84 3d df e1 72 bd
       0.12710202 0.06181708 0.064633146 -0.05929744
000160 15 b0 48 bd 01 54 74 3e a1 ad bc 3b 92 0f 18 3e
       -0.04899605 0.2386017 0.005758003 0.1484969
000170 86 99 8f be 24 ca f8 3b a2 5e 39 3d 4e 6d ee 3d
       -0.28046817 0.0075924564 0.045256265 0.11641942
000180 43 4f ee 3d 6a 07 56 be 4c e4 7f 3e 78 c3 81 be
       0.11636212 -0.20901266 0.24989432 -0.25344443
000190 4d 5b 4a 3e 20 61 5d 3d da 70 9b 3d 9c a9 5f be
       0.19761391 0.054047704 0.07589884 -0.21842045
0001a0 c7 73 13 3e 41 19 c0 3c b1 5e b6 bc eb 8f 68 3e
       0.14399634 0.023449542 -0.02226195 0.2271115
0001b0 d4 4b 8f be 4e 41 8f bc f7 d2 9a bd 88 d2 1d 3e
       -0.2798754 -0.017487194 -0.075597696 0.15412343
0001c0 32 fa fa bd ee 3d f6 3c ac 47 df 3d ed 27 91 3e
       -0.12254752 0.030058827 0.10902342 0.28350773
0001d0 2a d0 e7 3d 98 9f 3d 3c 39 33 99 bb 0c 78 a8 bd
       0.11319001 0.011573695 -0.0046752957 -0.08226022
0001e0 62 0a fa 3d 23 89 8f bd d6 45 dd 3c 68 64 09 3e
       0.122090116 -0.07008579 0.02701084 0.13417208
0001f0 c8 0c 0f be d4 ee 1e be b0 99 73 3d 9a 72 f2 3c
       -0.1396972 -0.15520793 0.05947274 0.029595662
000200 3a c0 41 be 80 a9 bf 3d 3c 45 1b 3e 9f 32 83 bb
       -0.18920985 0.093585014 0.1516313 -0.0040038372
000210 64 75 b2 3d 9a 08 ef bd b6 0c 12 be c0 a3 ad 3d
       0.08713797 -0.116715625 -0.14262661 0.084784985
000220 2a da 3e 3e e9 f6 e4 bc 4a fa c8 3d 10 98 d0 3c
       0.1863791 -0.027949767 0.09813364 0.025463134
000230 82 db 36 be 62 7e db bc 94 1c 31 3d 36 e0 68 3c
       -0.17857173 -0.026793662 0.043240145 0.014213612
000240 48 0e 21 3d ce ae cc bd e3 35 b4 bc 1b 96 0a 3e
       0.03932026 -0.09994279 -0.021998351 0.13533823
000250 04 15 d7 3d 37 57 0c 3e 94 12 9c 3d a6 ba df 3d
       0.10502055 0.13705145 0.07620731 0.10924272
000260 87 b3 90 bc b6 5a 3f 3e 1e 26 c6 3d 5a 78 5c 3e
       -0.01766373 0.18686947 0.09675239 0.21530285
000270 65 65 46 be d8 4f 79 be 8d 94 ef 3c b8 b5 02 3e
       -0.19374616 -0.24346864 0.02924564 0.12764633
000280 48 11 ca bd dc f2 5e bc 01 68 e7 3d 9c 71 06 3e
       -0.098665774 -0.013607707 0.11299134 0.13129276
000290 28 d4 62 bd 44 3e af bc b7 9c 77 bd 6a cb 3e 3e
       -0.05537811 -0.021391995 -0.06045219 0.18632284
0002a0 bd cc 23 be 72 16 d0 bd 58 02 70 bd 62 5d bc bd
       -0.1599607 -0.10160531 -0.058595985 -0.09197499
0002b0 86 5f f1 3d 34 48 71 3c ea 14 79 bd 58 c9 5c 3d
       0.11785798 0.014726687 -0.06081096 0.053902954
0002c0 c8 5a 5a bc 32 6a 25 3e ae 3b 83 3b d0 8c 0f 3e
       -0.013327308 0.16153792 0.004004917 0.1401856
0002d0 74 9f 48 be 16 ae 0f be a4 a0 28 bd 63 23 e2 bd
       -0.19592077 -0.14031252 -0.041168824 -0.11041906
0002e0 12 61 bd 3c 6a aa 91 bd b5 1c da 3d 2b 48 02 be
       0.023117576 -0.07112582 0.10650007 -0.12722842
0002f0 52 42 d8 3d 60 2d d0 bd 70 25 1c bd f8 2e 17 be
       0.105595246 -0.101649046 -0.03812164 -0.14764011
000300 dd ff 9f bd 14 44 c0 bc 8e 0e 08 3d c8 89 f1 3d
       -0.07812474 -0.023469962 0.033217005 0.11793858
000310 84 77 0f 3e 0a cb 89 3d c2 d7 c8 bd 88 53 fe bb
       0.14010435 0.0672818 -0.098067775 -0.0077614225
000320 91 59 fb 3c 1e d8 24 3e ba 69 92 3d dc 91 a5 bc
       0.030682357 0.16098067 0.07149072 -0.020211153
000330 91 d4 0b 3e 36 f7 71 3b e3 ad 23 3e f8 a1 0d be
       0.13655306 0.003692103 0.15984301 -0.13831317
000340 e0 f9 2d be 8f 7a 3a bb f4 48 b4 3d 8a ce e9 3d
       -0.16989851 -0.0028454398 0.08802977 0.11416347
000350 d4 e8 1a be 9e 92 3c be 7c f9 11 be a0 33 00 3e
       -0.1512788 -0.18415305 -0.14255327 0.12519693
000360 1c 1f c9 3c 38 51 d6 ba 36 d7 24 3e 85 d8 a8 bd
       0.024550967 -0.0016351109 0.16097721 -0.08244423
000370 91 a6 23 be 0c aa ab bd 43 fc 99 bd 78 d2 9e bd
       -0.15981509 -0.08382043 -0.07518818 -0.077549875
000380 8c 7a ec bd 32 dd 39 be 8a 98 33 3e 76 4a 57 be
       -0.115468115 -0.18150786 0.17538658 -0.21024498
000390 24 66 85 3e 5a 20 16 be a4 0c 83 3c 04 32 2a 3d
       0.2605449 -0.14660779 0.015997238 0.041551605
0003a0 92 6f ad bd 69 d8 0b be 3f 97 e8 3d 8c 2f b5 bd
       -0.08468546 -0.13656773 0.11356973 -0.088469595
0003b0 40 94 27 3d f0 c2 ef 3d eb 87 a5 3d d7 6b ad 3c
       0.040912867 0.11707103 0.08082565 0.021169586
0003c0 8f ee 40 3e f8 ec 3a be bc f1 e5 bc 48 35 fc 3b
       0.18841003 -0.18254459 -0.02806937 0.0076967813
0003d0 2e cc 51 3e 52 07 88 bd d0 03 b1 bc 68 bb 17 be
       0.20488045 -0.06642021 -0.021608263 -0.14817584
0003e0 b8 4c 08 bd 0a ee de 3d ca 9b 9d 3d 38 33 6a 3e
       -0.03327629 0.10885246 0.0769573 0.22871101
0003f0 2c 89 2b bd 9b c4 da bb 96 0d f3 bd ef f4 80 3e
       -0.041878864 -0.006676269 -0.11867826 0.2518687

rnn.bias_ih_l0 f4 [128]
000000 0e cd 3b bd 72 f3 72 3d 9c 9a 1b 3e 4a 72 ae 3d
       -0.045849852 0.0593142 0.15195698 0.08517893
000010 74 3b 5c 3e bc 0d 12 be 44 99 a7 3d fe dc 11 3e
       0.21507055 -0.14263052 0.0818353 0.14244458
000020 d8 9b f6 bc c5 cf fe 3d 25 3e 8d 3d 98 df ee 3d
       -0.030103609 0.12441973 0.06896619 0.11663741
000030 51 1c 92 3e a6 99 d3 3d b8 aa 2e 3e 18 7b ea bc
       0.2853723 0.103320405 0.17057312 -0.028623149
000040 7a 9e 93 bd 2e 12 2c 3e 85 ba 53 3d e8 9c 2b 3e
       -0.072079614 0.1680381 0.05169155 0.16759074
000050 d6 84 76 3e 0f 0d c6 3c d0 23 eb bd 20 78 43 bd
       0.2407411 0.024176149 -0.1148144 -0.047721982
000060 7e d2 36 bd bc 10 8a 3d 4a 98 ab 3d be 5e 3f 3d
       -0.044634335 0.06741473 0.08378656 0.046721213
000070 23 25 50 3e 7c 0d 5c 3d 4a 2e d9 bd 45 b7 7a 3d
       0.20326667 0.053723797 -0.10604532 0.061209936
000080 52 d9 e1 3c 0a 09 3b 3e c2 49 1a 3d 89 80 18 3e
       0.027569447 0.18265167 0.037667997 0.14892782
000090 14 fa 6b 3e 7b 24 9e bd 4e d3 a3 bd ba e3 26 3e
       0.23044616 -0.07721802 -0.079992875 0.16297808
0000a0 22 77 43 3d 48 38 66 3e e6 d7 07 3e f2 ea a9 bc
       0.047721036 0.22482407 0.13265952 -0.020741913
0000b0 d8 1c 99 3e e6 f6 7c 3e cc 1c 0e 3e 06 73 01 bd
       0.2990482 0.2470356 0.13878173 -0.031603836
0000c0 b6 1d e2 3d 46 a5 5a 3e 3d 38 38 3e a2 a0 ad 3e
       0.11040823 0.2135211 0.17990203 0.33911616
0000d0 4e b2 82 3e 5e 8b 8d 3e 8f c5 87 3d 96 a8 46 3e
       0.2552666 0.2764539 0.06629478 0.19400248
0000e0 16 91 fc 3d e6 62 1e 3e 14 1b af 3d 42 41 6f 3e
       0.123323604 0.15467414 0.085500866 0.23364738
0000f0 6a a4 8c 3e e2 e0 f9 3b 02 73 2c bd 46 f9 dd 3d
       0.27469188 0.007625685 -0.042101867 0.10838561
000100 82 f8 fd bd 96 b6 a9 be 5c 07 79 3e 36 49 aa be
       -0.12400915 -0.33147115 0.24319214 -0.3325898
000110 c6 cc bc 3e 4f 5a 50 be 01 ee 06 be 5c 7e 53 bd
       0.3687498 -0.2034695 -0.13176729 -0.051634178
000120 1c 07 46 3e d3 89 ad bc d4 a6 82 be ae d0 6d 3e
       0.1933865 -0.021183884 -0.25517905 0.23224136
000130 84 9d 66 be 91 2d 20 be d6 00 56 3e 22 b5 9a bd
       -0.22521025 -0.15642382 0.20898756 -0.075540796
000140 06 c2 5c 3e 49 0f ab be 0f 32 b3 3e a1 c5 a0 3e
       0.21558389 -0.334101 0.3499913 0.3140078
000150 d8 71 b5 3e c9 39 fd 3d 60 09 5e 3e 94 f8 4a ba
       0.35438418 0.12364537 0.21683264 -0.00077427295
000160 fe 1e 78 3e 87 24 88 bc e2 b3 1a be 5a ea d9 3d
       0.24230573 -0.01661898 -0.15107682 0.10640402
000170 00 79 82 be 9c 13 4f bd d0 47 4d 3e dc c6 90 3e
       -0.2548294 -0.05055581 0.20046926 0.28276718
000180 46 51 51 be e6 65 1e bc 94 db 8f 3e 6b 1d 5d 3e
       -0.2044116 -0.009667849 0.28097212 0.21593253
000190 dd 0f 69 3e 96 92 7d 3e 9e df 72 be 5a 29 bb 3d
       0.22759958 0.2476295 -0.23718116 0.091387466
0001a0 38 4a 66 3e 7a b2 8b 3e ba 9e 4b 3e 35 b8 00 be
       0.2248925 0.27284604 0.19884768 -0.1257027
0001b0 30 b8 84 3e 04 68 40 3d 0c d9 89 3e b7 60 db 3d
       0.25921774 0.046974197 0.26923406 0.10711806
0001c0 a2 6a 5d 3e 02 7e 26 3e 48 0e 03 3e d0 4e c5 3e
       0.21622708 0.16259006 0.12798417 0.38536692
0001d0 80 07 07 3d d5 6e fa 3d 0c 1f 0a be 30 22 41 3e
       0.032966137 0.12228171 -0.13488406 0.18860698
0001e0 b8 a4 d5 bd 71 06 6e 3e e8 7e 8a 39 70 0e 34 3e
       -0.10431808 0.23244645 0.00026415964 0.17583632
0001f0 10 c8 06 3e aa f0 fa 3d 88 fa dd 3d 8e 5f 2a 3e
       0.13162255 0.12252934 0.10838801 0.16638014

rnn.bias_hh_l0 f4 [128]
000000 48 ef 1c be 5c 23 08 3c 2e 4a ec 3d a6 37 6c 3e
       -0.15325654 0.008309212 0.11537586 0.23068103
000010 0e 2b 73 3d 94 10 54 be e5 20 32 be 7c b1 92 3e
       0.059367232 -0.20709449 -0.17395361 0.28651035
000020 6e 4f 56 bd 8a 90 46 bc c7 00 90 bd c6 14 d4 3d
       -0.052321844 -0.012119422 -0.07031398 0.10355525
000030 57 15 85 3e 05 49 34 3e d8 51 2d 3d d1 62 cc bd
       0.25992844 0.1760598 0.04231438 -0.09979785
000040 07 f7 2c 3c 24 34 2d 3e 5c 2a 63 bc 62 69 73 3d
       0.010556943 0.16914421 -0.01386508 0.059426673
000050 3a aa 9f 3c 5d 4a 22 3e 1d bc 5b be 48 c8 cb ba
       0.01949035 0.1584868 -0.21458478 -0.0015547359
000060 2a fe 90 3d 3a 3d 93 3d fe d6 c0 3c 0b 47 44 3e
       0.07079728 0.071894124 0.023540016 0.19167726
000070 dd d9 0b 3e 91 8b 10 3a 63 a5 07 be c8 4d 34 3e
       0.13657327 0.0005513961 -0.13246684 0.17607796
000080 15 3d ee bd a4 29 6a 3e 08 c7 8b 3e 8e 52 9a 3e
       -0.11632744 0.22867447 0.27300286 0.3014111
000090 20 8b 07 3d 19 46 20 3b 77 9a 27 bd a2 8a 99 3d
       0.033091664 0.0024455844 -0.040918794 0.07497145
0000a0 6a 45 2b 3b c1 80 ae bd 04 37 13 3d bf 61 8b 3d
       0.0026133903 -0.085206516 0.03594114 0.06805753
0000b0 80 1f a9 3e 38 ec e5 3d a8 a4 c3 3d 54 41 0b 3e
       0.33031845 0.11226696 0.0955289 0.1359914
0000c0 80 53 e9 bd 7b 44 27 3d 01 b8 0f bd b8 43 8e 3e
       -0.113928795 0.040836792 -0.03508759 0.2778604
0000d0 d3 8c 15 3e 5d 34 45 3e e2 95 31 be fa 75 55 3d
       0.14604501 0.19258256 -0.17342332 0.052114464
0000e0 a1 dd 7d 3e 02 34 52 3c d4 8f 27 3e 56 23 3b bb
       0.24791576 0.012829782 0.1636346 -0.0028554997
0000f0 5b 6a 28 3e a6 2f b0 3d 62 91 92 bd 48 77 ab 3e
       0.16446821 0.08602838 -0.07156636 0.33489442
000100 40 12 83 bd 4b 02 57 be c4 f9 e4 3d 46 ff a4 be
       -0.06399965 -0.20996968 0.111804515 -0.32226008
000110 90 70 a6 3e 89 10 eb bd d9 52 e7 3d 94 39 80 be
       0.32507753 -0.11477763 0.11295099 -0.2504393
000120 a6 9f 68 3e 74 ce db bd 7e 23 9e 3d 96 5f 04 3e
       0.22717151 -0.10732737 0.07721613 0.12927088
000130 28 5f 95 be 46 b1 b8 bd c8 17 68 3e 54 ff aa bc
       -0.2917416 -0.09018187 0.22665322 -0.020873703
000140 74 ce de 3d 85 7e 95 be 4d c1 6b 3e 15 e5 9c 3e
       0.108792216 -0.2919809 0.23022957 0.30643526
000150 20 94 ef 3d a4 fa 5d 3e 1e ff 9a 3d a2 4f b4 3d
       0.116981745 0.21677643 0.07568191 0.08804251
000160 ba 92 0c 3e fc 3c 98 3e ee 1a 80 be 52 18 99 3e
       0.13727847 0.29734027 -0.25020546 0.29901367
000170 96 ad 8e be 4c 88 a7 be 82 19 3a 3e 98 e1 05 3e
       -0.2786681 -0.32721174 0.18173793 0.13074338
000180 61 91 7d be 26 20 97 3e f6 96 96 3e 46 d3 a6 3e
       -0.24762489 0.29516715 0.2941205 0.32583064
000190 1f f1 21 3e e6 ff 84 3e 90 7b 23 be 8b 69 d7 3c
       0.15814637 0.25976485 -0.15965104 0.026295444
0001a0 cc e0 36 3e a7 df 39 3e ca 2e be 3b ec 75 ef 3a
       0.1785919 0.18151723 0.0058039175 0.0018269396
0001b0 7c 0f 23 3e 40 b0 9e 3c 98 5d 56 3d e8 92 ce bc
       0.15923876 0.019371152 0.05233535 -0.025216535
0001c0 0b ba 56 3d 42 57 26 3e 34 7b 90 3d 03 24 46 3e
       0.05242352 0.16244224 0.07054749 0.19349675
0001d0 5c 24 9e 3e a9 8e be 3d 2e 49 ab 3d bd 73 de bc
       0.30887115 0.09304554 0.08363567 -0.027154798
0001e0 44 bb 1b 3e a5 fc ea bc d8 c3 2f 3e ce 5a 5f 3e
       0.15208155 -0.028684923 0.17164552 0.21811983
0001f0 a8 76 8b 3e 7c ec ad 3e 02 3f 15 3e 9a 49 59 3e
       0.27238965 0.33969486 0.14574817 0.21219483

rnn.weight_ih_l1 f4 [128, 32]
000000 32 1f fc 3c 04 f5 82 be d3 d6 5e 3e ed 33 5d bd
       0.030776594 -0.25577557 0.21761636 -0.0540046
000010 63 d9 3a 3e 32 01 48 be 5a 26 8b 3d 11 61 3a be
       0.18246989 -0.19531706 0.06794424 -0.1820109
000020 ea 56 b1 bd 45 4a 6a 3d 24 e3 88 be 24 16 0c 3b
       -0.08659156 0.057199735 -0.26735795 0.0021375502
000030 ca 0b 6a be 4e ab 82 3c ec fc 49 3e 3f dc 1c 3e
       -0.2285606 0.015950825 0.19725388 0.15318392
000040 20 3e 3b 3d 76 bd 68 bd 87 b6 3c 3e 00 23 1a 3e
       0.045713544 -0.05682131 0.18429004 0.15052414
000050 92 00 e3 3c 7c a0 07 3d 8b a2 3f bd ac 5e 3b 3e
       0.027710233 0.033112034 -0.046785872 0.18297833
000060 2a 3f c9 3c 8e f8 55 3e c0 a7 ca 3c 47 2b 48 3e
       0.024566252 0.20895597 0.024738193 0.19547759
000070 50 04 09 bd be 88 20 be 71 7d 4b 3b 4d d6 b3 3d
       -0.03345138 -0.15677163 0.003105011 0.08781109
000080 b2 84 65 3d 34 aa 3e be 07 cf 44 3d a8 a6 21 be
       0.05603475 -0.18619615 0.048049 -0.1578623
000090 e6 78 8c 3e ce 6b 21 bd 45 37 00 3c 4c 8f 9a be
       0.27435988 -0.03940945 0.007825677 -0.30187452
0000a0 c6 88 18 3e a4 98 f6 bd ca 8b 3a 3c a8 4d ca 3d
       0.14895925 -0.12040833 0.011385867 0.09878093
0000b0 02 b1 a3 be 34 9d 4d be 53 d0 1d 3e 91 99 eb bd
       -0.31970984 -0.200795 0.154115 -0.115039
0000c0 ac 4b d4 bc 74 09 2f be 5e 1d 59 3e 11 27 94 3e
       -0.02591499 -0.1709345 0.21202609 0.28936055
0000d0 34 1c 5d 3e 38 85 97 3e e0 54 be bd 9e fc 2f 3e
       0.2159279 0.29593825 -0.09293532 0.1718621
0000e0 f2 36 7f 3c 2a 6e 3f 3e cc 10 80 be cf 97 81 3e
       0.015577065 0.18694368 -0.25012815 0.25311133
0000f0 5e d9 95 be f5 0a 08 bc 5e fb 76 3e f2 25 dc 3d
       -0.292674 -0.008303394 0.24119326 0.10749425
000100 5a 43 98 bd e8 de 22 3d 44 de 00 3e 37 04 05 be
       -0.07434721 0.03976336 0.12584788 -0.12989889
000110 40 8c 05 3e 1c 92 03 be 08 b7 f8 bc 3a 29 f6 3a
       0.13041782 -0.12848705 -0.030360714 0.0018780597
000120 1a 67 0c 3d 84 ee 1f be 31 86 3b 3e 72 da 13 3c
       0.034278013 -0.1561833 0.18312909 0.009024249
000130 8a 61 22 be c3 a6 6a be fc 99 a4 3d a0 f5 da 3d
       -0.1585752 -0.22915177 0.08037183 0.106913805
000140 1c a9 12 3e 76 99 e9 bd ac f3 90 bd 97 a7 c5 3c
       0.14322323 -0.114062235 -0.07077727 0.024127765
000150 a6 7a f9 3d b1 5f e2 3b 66 fc f5 3c 00 45 0f be
       0.121815965 0.00690838 0.03002758 -0.13991165
000160 f0 8b 81 3d 10 dc 87 3e f8 6c b0 3d 4c 49 77 3e
       0.06325519 0.26535082 0.08614534 0.24149054
000170 4d 6a cc bd 37 d6 e4 3c 95 b5 fd 3d 0c 3c 46 3d
       -0.09981213 0.027934177 0.1238815 0.04839711
000180 0c 9d 27 be d2 b6 84 be 5c 1a 84 3e 4f f3 f2 bd
       -0.16368502 -0.2592073 0.2580136 -0.11862814
000190 dc c8 be 3b 8c a3 03 3e 10 6d df 3c e0 c7 15 be
       0.005822284 0.12855357 0.027273685 -0.14627028
0001a0 3b 80 80 3e d6 b9 ee bd c1 8c f7 3d bd 39 6c 3e
       0.25097832 -0.11656539 0.120873936 0.230689
0001b0 e6 4e d3 3c 68 fe 4a be a9 91 bb 3d 51 34 c3 3d
       0.025794458 -0.19823611 0.09158642 0.09531463
0001c0 46 59 ab bc 53 1d 87 bc 7a 50 c3 3d c2 09 61 3d
       -0.020916592 -0.016493475 0.09536834 0.054940946
0001d0 eb 0c 66 3e 20 27 4a 3c a9 85 a6 3d 2b 96 dd bb
       0.22465865 0.01233843 0.081309624 -0.006762286
0001e0 9a 89 49 3e bd 20 8a 3c e2 23 36 be da 99 e0 3c
       0.19681397 0.016861314 -0.17787126 0.027417112
0001f0 b6 67 82 be 82 4d 7a be b2 16 49 3e 4e 53 7e 3d
       -0.2546975 -0.2444363 0.19637564 0.062091164
000200 58 46 0e 3e b2 27 55 bd f7 9b 11 3e 9a a7 98 be
       0.13894022 -0.05203981 0.14219652 -0.2981537
000210 de c6 fd 3c c0 f7 8f 3c 9a 00 4e bd d2 64 4f be
       0.030978616 0.017574191 -0.050293542 -0.20253304
000220 76 50 cf 3d 90 60 3c bd 2f 3b 24 be 98 e6 6f 3b
       0.101227686 -0.045990527 -0.16038202 0.003660595
000230 c6 69 fe bc 7f e9 85 be c0 51 47 3d bc 0a 5e bd
       -0.031056296 -0.26154706 0.048661947 -0.054209456
000240 a6 39 a5 bc c6 69 9a be b4 b6 1a 3e 0c f1 73 3e
       -0.02016909 -0.30158824 0.15108758 0.23822421
000250 4e 27 66 3e 2a e4 83 3e 50 7a 03 be 0c c6 3b 3e
       0.22475931 0.25760013 -0.12839627 0.18337268
000260 1c 38 8e 3d ae 3b 7b 3e 40 43 12 3c a6 aa 5f 3d
       0.06944296 0.24534485 0.008927166 0.054606102
000270 1e 09 c2 bd c8 c0 5d bc 4e cd e0 3c 3c f6 79 3e
       -0.09474395 -0.013534732 0.027441647 0.24410337
000280 82 c7 db bc f8 42 be 3d e6 64 cf 3d 3d 54 14 bd
       -0.026828531 0.09290117 0.10126667 -0.03621315
000290 d8 0b 66 3d cc 5d 08 bc 48 2a df bd 1f 7e 09 3d
       0.05616364 -0.008323144 -0.108967364 0.033567544
0002a0 7d c2 06 3e d0 91 ae 3d 9a e7 95 3d 5e 24 30 3e
       0.13160129 0.08523905 0.07319565 0.17201373
0002b0 a2 9d 58 be 36 6b 78 bd 72 47 1d bd d7 17 18 be
       -0.21153882 -0.06064912 -0.038398214 -0.14852844
0002c0 c2 cc 4a bd 70 1a 55 3d c8 8a 94 bd b7 48 69 3e
       -0.04951168 0.052027166 -0.07253033 0.22781645
0002d0 fc 01 23 3e 2a 25 8d 3d 07 1e 3d be c7 5f 19 bd
       0.15918726 0.06891854 -0.18468486 -0.037444856
0002e0 40 ea dc 3d 75 a3 e5 3d 53 5d 9c bc 53 34 01 3d
       0.10786867 0.112128176 -0.01908747 0.03154404
0002f0 76 72 87 3d e1 4c 60 be 9c f0 96 bd 10 6c c0 bd
       0.066136286 -0.21904327 -0.07370111 -0.09395611
000300 36 d4 e8 bd 6a 1a 72 be d0 e4 7d 3e 28 c6 e2 bc
       -0.11368601 -0.23642889 0.24794316 -0.027682379
000310 e2 17 00 3e b1 48 21 3d e4 f6 68 3c d4 40 0f be
       0.1250911 0.039375965 0.01421902 -0.13989574
000320 1a 0a a1 bc 46 3b 06 be d4 ac 7e 3d c1 b8 af 3d
       -0.019658137 -0.13108549 0.06217654 0.08580161
000330 a0 1f 49 3b 96 e5 49 bd 1f 3a 40 3e 12 02 20 be
       0.0030689016 -0.049291216 0.18772171 -0.1562579
000340 0b 91 dd 3d fa 19 f8 bd b8 d0 9a 3c 72 a9 1d 3d
       0.108186804 -0.1211433 0.018898353 0.038491674
000350 b1 3f e7 3d 20 a3 f0 3d d8 67 02 3e de 83 24 3e
       0.11291445 0.117498636 0.12734926 0.16065928
000360 b7 31 6c 3d ec db 6c 3e 62 22 10 be ea 11 3c bb
       0.0576646 0.23130769 -0.14075616 -0.00286972
000370 75 5f 7f bc 57 53 e7 bd 85 52 41 3e c1 32 ab bc
       -0.015586724 -0.11295193 0.18879135 -0.020898225
000380 dc 8b 20 be 24 ba 04 be 06 8a bf 3d a2 59 8b be
       -0.15678352 -0.12961632 0.09352498 -0.27216822
000390 8a 13 5d 3e 74 10 2e bb e6 8c 95 bd 04 9d 1d bd
       0.21589485 -0.00265601 -0.07302265 -0.03847982
0003a0 8c 68 96 bd d9 ec 5f bd a8 8d 1f be f0 ae e2 3d
       -0.073441595 -0.054669235 -0.15581381 0.11068523
0003b0 9a f7 09 be 3f 53 48 3d 9a 0f 4b 3e c5 e2 39 3d
       -0.13473359 0.048907515 0.1983017 0.04538228
0003c0 ec 65 16 3e e4 d7 cd bd 68 9a 06 be 64 97 ab ba
       0.14687318 -0.100509435 -0.13144839 -0.0013091383
0003d0 23 87 3a 3b e6 5b 87 3e ac 0d 62 3d d0 f4 13 3e
       0.0028461895 0.264373 0.05518882 0.14448857
0003e0 cf a7 67 3e d0 33 5c 3e 94 65 e4 3c ea 70 03 3e
       0.22622608 0.2150414 0.027880467 0.12836042
0003f0 e8 73 41 bc a7 a6 e8 bd 0c bc 44 3d b4 e8 a1 3d
       -0.011807419 -0.113599114 0.048030898 0.07905713

rnn.weight_hh_l1 f4 [128, 32]
000000 84 73 1c 3d 1e 2c 61 3e 76 c1 40 3e 2c d1 2b be
       0.0381961 0.21989486 0.188238 -0.16779011
000010 97 a6 40 3d 26 60 4b bd d4 ef 55 3d ba 1e f9 3d
       0.047033872 -0.04965224 0.05223067 0.12164064
000020 06 e7 b1 bd dc 0e 68 3e 0e 20 cb bd f5 7d 98 3c
       -0.08686642 0.22661918 -0.09918223 0.018614748
000030 44 1d 19 3e 1a 66 61 bd 61 0e 46 bd cd 73 23 be
       0.1495257 -0.055029012 -0.048353557 -0.15962143
000040 c2 db 80 be 6b 73 86 3c 4e 97 9f 3d f0 f7 0d be
       -0.25167662 0.016412457 0.07792531 -0.13864112
000050 7c d0 c2 3d 0e 4d 50 3e 54 af 1a be 7c 1a 41 3d
       0.095124215 0.20341894 -0.15105945 0.047144398
000060 20 59 0f be e6 74 56 3e 3c bf 13 be 3e 68 69 3d
       -0.13998842 0.2094303 -0.14428419 0.05698418
000070 36 24 1c 3e 0c 0e 5e be 70 72 e8 3d 6e 4b 87 3d
       0.15248188 -0.21685046 0.11349952 0.06606184
000080 d0 ec 29 3e 4a e6 fe 3b c1 50 83 3e b0 08 6b 3d
       0.16594243 0.0077789174 0.25647548 0.057381332
000090 df 72 ce bd 47 5a ae bd 50 5f da ba 0c d8 8c 3e
       -0.10080504 -0.08513313 -0.0016660485 0.2750858
0000a0 0e 74 de bc a4 41 a0 3e 85 8b eb bc 74 3d 33 3e
       -0.027154949 0.3130008 -0.028753052 0.17503911
0000b0 3c f3 01 3e ba e9 3c 3d d6 01 1f 3c 14 28 d2 bd
       0.12690443 0.046121337 0.009705028 -0.102615505
0000c0 c9 27 b3 3c 6c 5a f4 bd 34 49 a0 3d bc 9b 35 bc
       0.021869557 -0.11931309 0.078264624 -0.011084493
0000d0 80 b9 67 bd 2c 7f 2d 3e 16 a9 c9 bd 5d 79 4b be
       -0.05657339 0.16943043 -0.09846704 -0.19870515
0000e0 88 b8 c1 3d fc 4f 91 3d eb df 83 be 92 2a a7 3d
       0.09459025 0.07095334 -0.25756773 0.081624165
0000f0 65 f6 04 3e 3e 9c 4f be e2 c4 f9 3d d0 47 a1 3d
       0.12984617 -0.20274445 0.121957555 0.07875025
000100 90 14 a8 3b e2 8c 9b 3e 85 fa 79 3e fe 18 20 be
       0.0051294044 0.30380923 0.24411972 -0.15634534
000110 e4 80 c2 bb 86 70 a0 3a 73 88 02 be 48 67 76 3e
       -0.005935775 0.0012240566 -0.12747364 0.24062836
000120 d3 ff b3 3d 86 0a 94 3e ec 18 8c 3c a7 e1 15 3e
       0.08789029 0.2891428 0.017101727 0.14636861
000130 ba cf 6b 3e 3c 2f 21 3d da 36 f5 bd c6 cd 22 be
       0.2302846 0.039351687 -0.11973353 -0.15898809
000140 9a 66 95 be f9 be 46 bd 4e 78 2c 3e 22 e1 b9 ba
       -0.2917984 -0.04852197 0.16842768 -0.0014181475
000150 ae ad 75 3e ce a9 04 3e 8a 82 2d be 79 2f ab 3d
       0.23992035 0.129554 -0.16944328 0.08358664
000160 a8 29 12 be f5 6f 8c 3d dd de 2c bd ac 3a 4f 3e
       -0.14273703 0.068572916 -0.042204726 0.20237225
000170 79 6a 55 3d 22 1d c4 bc ae f0 03 3e f6 07 14 bc
       0.052103493 -0.023939673 0.12884781 -0.009035101
000180 50 68 e5 3d b8 27 3a 3e b4 05 89 3e 3a 6b 1d 3c
       0.11201537 0.18179214 0.26762164 0.009608084
000190 2c 8d 5b 3d da c0 94 be 2a 1a 06 be 58 e2 f0 3b
       0.05360143 -0.29053384 -0.13095918 0.007351201
0001a0 f8 4c fe bd dd 37 3b 3b d0 14 ae 3c 12 86 28 3e
       -0.124170244 0.0028567233 0.021250159 0.16457394
0001b0 81 f6 33 3d 6e 97 b2 bd ee 6f ec bc f8 6a 6c bd
       0.043936256 -0.08720289 -0.028861966 -0.0577192
0001c0 16 bb 27 be 9c dd 93 bc cc 6b c1 3d ba 46 36 3e
       -0.16379961 -0.018050008 0.09444389 0.17800418
0001d0 9c 3a 06 3e 94 28 bc bd ca 91 83 be c7 3c 15 be
       0.13108295 -0.09187427 -0.25697166 -0.14573966
0001e0 90 d1 f9 bd 2b 61 52 3e 79 f2 92 bd 25 ae 5a 3e
       -0.12198174 0.20544879 -0.07175154 0.21355493
0001f0 c1 47 5b 3e e1 63 67 be 34 0b 5e 3e 02 2a 1d 3d
       0.2141409 -0.22596695 0.21683961 0.03837014
000200 94 b1 19 3e e0 ad 55 bc 06 af 9b 3d 1e e3 b7 3a
       0.15009147 -0.013041943 0.076017424 0.0014029478
000210 52 90 27 3d 46 ef b5 bc a4 98 40 bd 56 91 46 3d
       0.04090912 -0.022208821 -0.04702057 0.048478447
000220 94 af b8 3d 58 c4 98 3e 5a 19 14 3d 9b 70 16 3d
       0.09017864 0.29837298 0.03615699 0.036728483
000230 74 02 bd 3d 13 76 2c 3e d8 c3 6a be 14 a8 49 be
       0.092289835 0.16841917 -0.22926271 -0.19693023
000240 ea 7d 5f be 58 52 31 bd f0 0b 1e 3d 02 d6 d2 3c
       -0.21825376 -0.04329142 0.038585603 0.025736813
000250 51 ec 5c 3e a1 7e 74 3d 54 79 df bd 30 db 4c bd
       0.21574523 0.059691075 -0.109118134 -0.05001372
000260 99 7e 70 bc c8 43 62 3e 78 88 f0 bd 7e 10 34 3c
       -0.014678621 0.22096169 -0.11744779 0.01099026
000270 2b dc 1b bb 2d 32 ea bd 46 a6 9b 3e b4 42 f6 3d
       -0.0023782353 -0.114353515 0.30400294 0.12024441
000280 57 6c 0f 3e 58 bc 9b bd 5a ea 57 3e 0a c2 7a bd
       0.14006172 -0.07604283 0.21085492 -0.061220206
000290 e2 2c 2b 3c 74 77 30 be 96 50 8f 3a 87 29 bb 3d
       0.010447713 -0.17233068 0.0010934051 0.0913878
0002a0 b2 58 e5 bd db 3b b1 bd 86 0f 54 be b4 fa c8 3d
       -0.11198558 -0.08653995 -0.20709047 0.09813443
0002b0 49 57 3d 3e b2 88 2e 3e 13 b3 ef bd ac 86 09 be
       0.18490328 0.17044333 -0.117040776 -0.1343028
0002c0 86 a9 60 be 50 4d 7f be 08 32 56 3e fc c8 17 3c
       -0.21939668 -0.24931836 0.20917523 0.009264227
0002d0 46 c1 3a 3e d8 8e 48 3e 2d e0 a7 bd cf 6a 7e be
       0.1823779 0.1958574 -0.08197055 -0.24845432
0002e0 72 9e 82 bd 58 e9 39 3b 47 8a 08 3c 2e e4 47 bd
       -0.06377877 0.0028367843 0.008333749 -0.048801593
0002f0 18 0f a2 3d 1c 82 39 be f0 91 44 3e 30 8f d6 3c
       0.07913035 -0.18116039 0.19196296 0.026191324
000300 4e 18 7b 3d ff 8f 8b 3e 33 64 28 3e 2c db 58 be
       0.061302476 0.27258298 0.16444473 -0.21177357
000310 f6 5e 70 be 27 1b 04 be 78 4a 0c bd 74 88 9a 3d
       -0.23473725 -0.12900983 -0.034250706 0.075455576
000320 c6 23 f4 bd b9 46 66 bb b2 e0 73 bd ce e4 8d 3e
       -0.11920886 -0.0035137369 -0.059540458 0.27713627
000330 c1 6b cc bd 16 f2 9e 3c 4e d3 2b 3d 28 8d 41 be
       -0.0998149 0.019402545 0.041949563 -0.18901503
000340 3a 6d 6c be 2e 26 e1 bd 6c 08 06 3d c2 b2 bc bd
       -0.23088542 -0.1099361 0.032722875 -0.09213783
000350 e4 b0 2f 3d d4 cd d7 3d 7a 10 2d 3d e6 ba 98 bd
       0.042893305 0.105373055 0.04225204 -0.07457523
000360 c2 b7 ee bd 0f 4e 32 bd f0 94 bc bc 68 f2 bc 3c
       -0.11656143 -0.043531474 -0.023020238 0.023064807
000370 0c 30 09 3d a6 1e 4d be fb 5d 92 bd 44 b4 73 3e
       0.033493087 -0.20031223 -0.071468316 0.23799235
000380 ca c6 0c bd d0 c0 7c 3e ae d4 40 bd e0 e4 a0 bd
       -0.034369268 0.24682927 -0.047077827 -0.078561544
000390 de 3c 79 bd 83 84 0f be fa af db bc 16 06 26 3e
       -0.060849063 -0.14015393 -0.02681731 0.16213259
0003a0 0c 3c 19 bd 44 0d 8f 3e aa b8 84 be dd ba 00 3e
       -0.03741078 0.27939808 -0.25922137 0.12571283
0003b0 70 57 ce 3d ba dc ad bd 0e 9f 93 be 8b b3 e2 bd
       0.10075271 -0.08489366 -0.28832287 -0.11069401
0003c0 ae 6a fe bd 58 d4 56 bd 65 d2 96 bc 4c 89 8d 3d
       -0.12422691 -0.0524486 -0.01841087 0.06910953
0003d0 a0 2c 1e 3e 5a af 24 3e 68 50 2d be 76 27 52 be
       0.1544671 0.16082516 -0.16925204 -0.20522866
0003e0 f1 96 0d be a6 9e 5b 3e d8 f4 8c be 80 ff 60 3d
       -0.13827111 0.21447238 -0.2753055 0.054931164
0003f0 b8 97 0c 3e fa ed 27 bd 83 c0 92 3c a1 4a 35 3e
       0.13729751 -0.040998437 0.017914062 0.1770425

rnn.bias_ih_l1 f4 [128]
000000 53 c7 ce 3d c9 84 bd 3d a8 f0 dd 3d 99 22 b4 3d
       0.10096612 0.092538424 0.10836917 0.087956615
000010 94 4d 97 3e 85 f9 88 3e 8c dc a8 3e 70 ad 3d 3e
       0.29551375 0.26752868 0.32980764 0.18523192
000020 f2 d8 c9 bd f4 67 4c 3e 4c 17 cb 3d 58 ed 3a 3d
       -0.09855832 0.1996153 0.09916553 0.045636505
000030 20 46 f1 bc 4e f2 81 bc 79 b0 f9 3d e9 ee 32 3e
       -0.029452384 -0.01586261 0.121918626 0.1747395
000040 d6 29 3d 3e dc 69 bb 3d 0f b1 ed 3d c2 24 40 be
       0.1847299 0.091510504 0.11606037 -0.18764022
000050 04 3d 01 3e 86 3d 22 3e 68 6f d2 3d 08 01 26 3d
       0.12620932 0.15843782 0.10275155 0.040528327
000060 06 b1 f0 3d e7 ac a6 3c 04 79 78 3e 06 9e 6f 3e
       0.117525145 0.020346118 0.24264914 0.23400125
000070 b2 1d 1b 3c 06 df 77 3d e1 65 aa 3d ea 37 83 3e
       0.009467529 0.060515426 0.08320213 0.25628597
000080 84 53 80 3c 26 bc a6 3d 7b 4b 92 3e 17 0e c2 3d
       0.015664823 0.08141355 0.28573212 0.09475344
000090 24 8b 18 3e 38 7b 33 3e 75 12 f9 3c 81 e9 c4 3c
       0.14896828 0.17527473 0.030404309 0.024037125
0000a0 f8 37 79 3d 39 6a ea 3b 1a 98 49 3e 74 23 64 3e
       0.06084439 0.007153776 0.19686928 0.2227915
0000b0 a0 72 51 3e 93 ca e1 3c f8 98 84 3e 40 ca 73 3e
       0.20453882 0.027562415 0.25897956 0.23807621
0000c0 86 c7 ad 3d 88 11 c2 3d 4e 35 03 3e eb df 0b 3c
       0.08485322 0.09476 0.12813303 0.008537273
0000d0 8a 9c 54 3e b6 e8 69 3e 3e c8 a3 3d bf 00 a7 3d
       0.2076284 0.22842678 0.079971775 0.08154439
0000e0 cc 48 38 3e 9e 8e 4f 3c 9c f6 61 3d bc b7 a0 3e
       0.1799652 0.01266828 0.055166826 0.31390178
0000f0 e0 ea b4 3e 0e cd 9b 3e ee a8 23 3d 5f 8f 98 3d
       0.35335445 0.30429882 0.039956026 0.07449221
000100 64 5e b2 bd bc b3 75 3e d6 8f aa 3e e2 a5 02 be
       -0.0870941 0.23994344 0.33312863 -0.12758592
000110 5a 10 93 be 40 3e a3 bd a0 2d 33 be 27 f2 1c 3e
       -0.28723413 -0.079708576 -0.17497873 0.15326749
000120 c1 5e a5 bd 94 ed 10 3e 57 0b 90 bd ed a7 a0 3e
       -0.080747135 0.14153129 -0.07033413 0.31378117
000130 e8 82 92 3e 36 ce 2d 3e 16 44 67 be ba 0a 66 bc
       0.286155 0.16973194 -0.22584566 -0.014040643
000140 98 09 10 bd 17 64 a2 be f6 fd a0 3e be 3c 5f 3d
       -0.0351654 -0.31716987 0.31443757 0.054501288
000150 72 61 26 3d 44 ed 8d 3e 6e 94 58 be 1f a5 3c be
       0.040620275 0.27720082 -0.21150371 -0.18422364
000160 79 bf 3d be 5d fb f5 bb 44 1b 4d be 4b 22 9d 3e
       -0.18530072 -0.0075067715 -0.20029932 0.30690226
000170 cb 6c 3c 3e 29 4e 15 be 72 62 9c 3e 29 37 94 3e
       0.18400876 -0.14580597 0.30543858 0.28948334
000180 20 97 8d bd f4 4a 8f 3e 83 9d b4 3e a6 de cd 3e
       -0.069135904 0.27986872 0.35276422 0.4020893
000190 32 e7 98 3d ae 28 ff 3d d1 3b d6 3d ef 7d ab 3e
       0.07465972 0.12458931 0.10460628 0.33494517
0001a0 de d0 2c 3e d6 1b 3a 3e 5c f5 91 3d 1a 36 03 3e
       0.16876552 0.18174681 0.07126877 0.12813607
0001b0 d5 75 2e 3e c3 b2 04 be b6 cb 8c 3e 7b 6c 5e 3e
       0.17037137 -0.12958817 0.2749917 0.2172107
0001c0 e0 ef 94 3e be 3f 79 3e bc fb cd 3e 15 2e 8e 3d
       0.2908926 0.24340722 0.4023112 0.06942383
0001d0 20 63 1a 3e bc 8c 74 3e 27 0b fb 3d 0d fe 31 3d
       0.15076876 0.23881811 0.122579865 0.043455172
0001e0 61 40 04 bc 14 11 2e 3e 05 35 30 3e b0 6f bd 3e
       -0.00807199 0.16998702 0.17207725 0.36999273
0001f0 3a d4 c2 3e 57 5c 0a 3e 02 e2 d3 3d fe 73 50 3e
       0.3805254 0.13511787 0.10345842 0.20356748

rnn.bias_hh_l1 f4 [128]
000000 92 57 62 be 75 07 e0 3d a5 52 8c 3e a8 75 7c 3e
       -0.22103718 0.10938922 0.27406803 0.24654257
000010 c6 4e a3 3e 1a 7a f2 3d 9c b5 1d 3c 3b 40 2a 3d
       0.31896037 0.11839695 0.009625819 0.04156516
000020 a2 9b 65 3d 30 2b 5a 3e 98 69 15 3c 5d 1f 96 3e
       0.056056626 0.21305537 0.009119414 0.29320803
000030 aa e4 15 bc 19 97 43 bc 48 69 62 3e a1 eb 6d 3e
       -0.009148756 -0.01193788 0.22110474 0.23234417
000040 52 18 50 3d 76 bc 6c 3e af 54 a9 3d 15 d5 1c 3d
       0.050804444 0.23118767 0.08268105 0.03828915
000050 12 f0 36 3e 5c 6d 53 bd 88 c3 af 3d 00 07 1d 3e
       0.17865017 -0.051617965 0.085822165 0.15334702
000060 bc d9 3b 3e e1 2d e2 3d 28 cd 00 3e e5 24 8d 3d
       0.18344778 0.11043907 0.12578261 0.06891803
000070 72 b2 f3 3d 15 8d a3 3d a2 b9 34 3e 4c 9b 99 3e
       0.1189927 0.07985894 0.17648938 0.30001295
000080 6d c2 4c 3c c9 75 7a 3e 1b c7 7c 3e b5 97 b6 3d
       0.012497527 0.24458994 0.24685328 0.089156546
000090 71 e3 04 3d ae ff 58 3d e4 83 bd 3d 5a a3 27 3e
       0.032443468 0.05297821 0.09253672 0.16370907
0000a0 ab 10 fd 3d 0e f3 77 3e db 58 13 3c 96 ff fb 3d
       0.12356695 0.24213812 0.008993353 0.123046085
0000b0 08 10 1a 3e 1e eb f0 3d da 43 96 3e 56 be 6b 3e
       0.15045178 0.11763595 0.29348642 0.23021826
0000c0 25 b0 66 3e c6 67 44 3e 6e de e3 3d 38 f4 be 3d
       0.22528131 0.19180211 0.111264095 0.09323925
0000d0 c6 82 56 3e b2 2a 87 3e 69 e1 3f 3e b9 45 3e 3d
       0.20948324 0.2639976 0.18738331 0.04645321
0000e0 ba 52 52 3d 68 43 56 3e be f8 b3 3d 80 fc 71 3d
       0.051348425 0.20924151 0.08787678 0.059078693
0000f0 b2 01 c0 3d c2 fa b9 3e c0 b1 17 3e e0 ba 25 3d
       0.09375323 0.36324126 0.148139 0.04046142
000100 3e 0c 98 bd a8 2e 95 3e f2 78 81 3e aa 89 92 be
       -0.0742421 0.29137158 0.25287586 -0.28620654
000110 b0 6e 50 be 44 93 0a be f8 0b b6 be 71 b9 74 3e
       -0.20354724 -0.1353274 -0.35556006 0.23898865
000120 22 5d 07 bd 68 de 43 3e 2f ad 62 be a2 58 3b 3e
       -0.033047803 0.1912781 -0.22136377 0.1829553
000130 5c 7b 2f 3e ca a8 3d 3d 80 a4 a4 be 27 60 86 be
       0.17136902 0.046303548 -0.32156754 -0.26245233
000140 12 f9 87 be 04 58 43 be 62 04 9e 3c e6 5c 02 be
       -0.26557213 -0.19076544 0.0192892 -0.1273075
000150 d6 6a 9b 3e ce af 38 3e 94 00 89 bd b4 e4 b5 bd
       0.30354947 0.18035814 -0.066895634 -0.08881512
000160 7a be 5b bd 6a 8a 68 3e 98 ea 9e be 61 78 b4 3e
       -0.05364845 0.22709051 -0.31038356 0.35248092
000170 97 0d a1 3e 39 52 57 be 0c c8 13 3e 2a e3 2c 3e
       0.3145568 -0.21027459 0.1443178 0.16883531
000180 30 a6 04 be b6 8d 9a 3d d1 51 bf 3e 9a 1e ff 3d
       -0.1295402 0.075465605 0.37367108 0.12457009
000190 c0 ed 2a 3e b9 20 7d 3e c8 dc cc 3e 22 af 2f 3d
       0.16692257 0.24719514 0.40012193 0.04289163
0001a0 b0 ce 58 3d 9a 14 ad 3e 5e 7f b5 3d 0e 8d 9e 3e
       0.052931488 0.3380478 0.08862184 0.3096699
0001b0 33 8b 62 3e d9 c2 55 be f2 c9 d5 3d ec 4c a5 3e
       0.22123413 -0.2087511 0.10438909 0.3228525
0001c0 9b 2d 4c 3e f9 1f c7 3e 78 fb 46 3e a0 85 6b bd
       0.19939272 0.3889158 0.19431865 -0.05750048
0001d0 98 12 c9 3d 6e 15 02 3d 5a 12 36 3e 01 81 ae 3e
       0.098179996 0.03175872 0.17780438 0.34082797
0001e0 91 6b 2d 3a 0c fb 2b 3e 16 ba 99 3d 96 bf c7 3e
       0.0006615455 0.16794986 0.07506196 0.39013356
0001f0 7e 31 a0 3e 31 f4 2f 3e 3e e0 45 3d 02 da 2c 3e
       0.3128776 0.17182995 0.048309557 0.16880038

distribution_projector.weight f4 [2, 32]
000000 54 d2 02 3f 5e e0 31 3d 38 fb cc 3d d4 d4 96 bd
       0.51102185 0.043426864 0.10008854 -0.073648125
000010 35 1b c8 bc 84 cd 05 3e 38 49 ea 3c 59 d1 24 bc
       -0.024427036 0.13066679 0.028599367 -0.010059678
000020 a4 06 ce 3d 3a b4 b4 3d 86 78 62 be 54 43 88 3c
       0.1005986 0.08823438 -0.22116289 0.016633667
000030 26 b2 34 3e 9e 98 71 bd 02 85 d3 3d 1e f6 25 be
       0.17646083 -0.058983438 0.103281036 -0.16207168
000040 1a 12 32 3e c7 69 1d 3e e6 5f d2 bd d9 01 ae bc
       0.17389718 0.15372382 -0.102721974 -0.021241115
000050 d7 81 33 bd 1d ac 43 be 88 14 b3 bd e8 dd 1d 3e
       -0.043824997 -0.19108625 -0.087441504 0.15416682
000060 98 dd 91 bc 75 62 dd 3d ae a0 8e 3c 7e cb 2c 3e
       -0.01780586 0.10809795 0.017410602 0.16874501
000070 f4 11 81 bc 6a c0 1b 3d f8 52 0a bd 85 91 03 3e
       -0.015755631 0.038025297 -0.03377053 0.1284848
000080 3c 01 3b be 8c 3b cf 3e 06 25 e2 3e 8a 16 b5 be
       -0.1826219 0.40475118 0.44168872 -0.35368758
000090 3a 0d ae be 48 de a2 be 5c 40 bd be 30 dc a4 3e
       -0.33994466 -0.31810212 -0.36963165 0.3219924
0000a0 cc 8f 56 be ae 80 d6 3e a2 7b a5 be 17 02 b7 3e
       -0.20953292 0.4189505 -0.32320887 0.35743782
0000b0 3d 7d 91 3e d6 19 00 3e f0 01 c3 be 8a a2 af be
       0.28415862 0.12509856 -0.38087416 -0.34303695
0000c0 de 4d ab be 9f ee a5 be 06 9d ea 3e e1 41 2e 3d
       -0.33457845 -0.32408616 0.45822924 0.042543296
0000d0 2a c5 be 3e 08 58 78 3e f0 58 8f be ab d3 b8 be
       0.372598 0.24252331 -0.2799754 -0.3609899
0000e0 4a b9 87 be 44 e3 d8 3e ad ba e2 be 02 6c b2 3e
       -0.26508552 0.4236089 -0.44283047 0.34848028
0000f0 90 a7 a0 3e f2 01 ed be 28 bd c0 3e 26 45 c0 3e
       0.3137784 -0.46290547 0.37644315 0.37552756

distribution_projector.bias f4 [2]
000000 3f e7 7b 3d ec bc 8e 3e
       0.06149983 0.2787851
