ENGINE/ALL/CASES/mlruns/0/b304360ba98d40f59eb4c154bc480c71/artifacts/pytorch-model/data/model.pth (torch, 5079 bytes, 6 tensors)

weight f4 [10, 4]
000000 05 48 6f 3d d0 ee d8 be 1f 25 83 be 7c d8 fd 3d
       0.058418293 -0.423697 -0.2561426 0.12394807
000010 02 02 f1 be 12 87 99 3e a8 a9 d2 bd 0a 3d 82 3e
       -0.47071844 0.29985863 -0.102862656 0.25437194
000020 92 a4 ba 3c 29 3b 49 be 53 0b e5 3e 8d 4d d3 3e
       0.022783551 -0.19651474 0.44735202 0.41270104
000030 af a9 8d 3e 8a 0f 52 be d4 34 40 3e ad 9d 0f 3e
       0.2766852 -0.2051374 0.18770152 0.14024992
000040 39 3f 65 bd f9 1a 9e be 1c a6 47 3f 84 c8 30 3f
       -0.055968497 -0.30879954 0.7798784 0.6905596
000050 08 ac 3e be 36 9d 9a be 70 a3 ab bd b0 d8 5c be
       -0.18620312 -0.30198067 -0.083807826 -0.21567035
000060 34 8f 29 be d4 f8 2b be 6f e5 38 3f cb e7 65 3f
       -0.16558534 -0.16794139 0.7222509 0.89806813
000070 f4 7f 0c bf ec e7 7f 3e f2 14 a3 3d 65 15 d4 3e
       -0.5488274 0.24990815 0.079629794 0.41422573
000080 ae f9 a8 3e 52 40 e9 be 2e 68 f3 be 3c f4 76 be
       0.3300299 -0.45556885 -0.4754042 -0.24116606
000090 b6 1d 3f 3f 41 d5 a8 3e 42 16 05 3e 3f 2f 16 bf
       0.7465471 0.329752 0.12996772 -0.5866584

bias f4 [10]
000000 21 b4 91 3e 5c a0 58 be a9 c8 79 3e 05 c4 97 3d
       0.2845774 -0.21154922 0.24392952 0.07410435
000010 9b d2 1c bf 7a 96 83 3e 16 c7 f9 be 4d 2d b2 3d
       -0.6125886 0.25700742 -0.48784703 0.08700047
000020 fc d7 13 be 5a 9e f1 3e
       -0.1443786 0.47191125

weight f4 [10, 10]
000000 10 76 46 be e0 63 1a be e4 6f 1b 3f 51 e6 82 3e
       -0.19380975 -0.15077162 0.60717607 0.25566342
000010 b3 5d 43 3f b9 c8 81 3e 24 1b fc 3e c5 aa 1a be
       0.7631485 0.25348452 0.49239457 -0.15104206
000020 46 31 45 3e 70 a6 59 bd 5f 1a a5 bd 6e 55 52 3e
       0.19257078 -0.053137243 -0.080616705 0.20540401
000030 51 90 25 3d 0d 40 b9 3e 3a 8c 39 bf 80 35 55 bd
       0.040420834 0.3618168 -0.72479594 -0.052052975
000040 bc 1d 1a bf 08 2f 3d 3d 36 c0 75 be 56 84 e4 3e
       -0.6020162 0.04618743 -0.23999104 0.44632214
000050 bc e1 a5 3d 74 dd 97 bd e9 b6 84 bd 91 70 78 bb
       0.08099696 -0.07415286 -0.064802 -0.0037908892
000060 e4 cf 82 be 50 68 8e 3d 93 25 d5 be ba 0e c6 3d
       -0.25549233 0.0695349 -0.4163023 0.096707776
000070 0e f2 95 be 57 fc c4 3e 5e a7 83 be b0 52 74 be
       -0.29286236 0.3847377 -0.2571363 -0.23859668
000080 3b 2b 13 be 83 fb 39 bb 08 7b 7a be bb 88 3b be
       -0.1437196 -0.0028378672 -0.24460995 -0.18313877
000090 22 55 5e bf 26 2d 2e 3e 98 10 40 bd a6 3d 25 3f
       -0.8684865 0.1700941 -0.046890825 0.64547193
0000a0 58 34 d0 3d 92 d2 72 be d0 1b 82 3d 40 8f 9b 3d
       0.10166234 -0.23713139 0.06352961 0.07595682
0000b0 8c d0 58 be 6e a4 19 be dc d3 dc 3d 08 03 68 3d
       -0.21173304 -0.15004131 0.107825965 0.056643516
0000c0 34 be 09 be 9c 0c c4 bd c3 ad c5 3e 00 a7 6f bd
       -0.13451463 -0.095727175 0.38609132 -0.058508873
0000d0 77 69 05 3f 57 ad a8 3e 2a c2 79 3e 1e b1 89 be
       0.5211405 0.32944748 0.24390474 -0.26892942
0000e0 c3 00 50 3f d4 c8 9c 3d 8e f6 5d 3e d4 21 39 bd
       0.8125116 0.076554924 0.21676084 -0.045198277
0000f0 57 9d 2a 3d ca e0 71 3e 13 8e 75 3e 86 2f 8a be
       0.041653957 0.23620906 0.23979978 -0.26989383
000100 09 0e a8 bc a6 a6 71 3e 5d 17 2d 3e 60 ad 0b 3e
       -0.020514505 0.23598728 0.16903444 0.13640356
000110 47 5a 6a be 76 56 93 be 0e 59 85 be f8 b8 22 3d
       -0.22886 -0.28776902 -0.26044506 0.03972718
000120 79 95 d9 3d e5 4d 42 be 3f c2 6f be 9f 3a 33 be
       0.10624213 -0.18975027 -0.23413943 -0.17502831
000130 2a 4e 4d bf 0b 50 02 be f6 92 3a 3e bb 69 1c 3f
       -0.80197394 -0.12725846 0.18220124 0.6109883
000140 5a 97 fe bd 40 8b 8c 3d e2 92 d9 3e 0c dd 50 3e
       -0.12431212 0.06862497 0.42494875 0.20396823
000150 eb 1d 05 3f 76 1d 66 3e a4 fe 20 3f 4f 1d 11 3e
       0.51998776 0.22472176 0.6288855 0.14171337
000160 c8 6e 5d be 4c 54 d9 be 3a 58 de bd 28 d4 16 bd
       -0.21624291 -0.42447126 -0.10856672 -0.03682342
000170 59 49 38 3e 0a 8f fc 3e 54 f7 02 3f b6 a5 92 bd
       0.1799673 0.4932788 0.5115864 -0.07160513
000180 5b cd 11 3f c5 a7 2c 3d fa b3 45 3e ae 53 09 bd
       0.5695397 0.042152185 0.19306937 -0.03352707

bias f4 [10]
000000 95 82 ce be d6 9f 7a 3f d3 1b ce 3e 48 69 0d 3f
       -0.40334 0.9790014 0.40255603 0.5523877
000010 83 d2 98 be be 9a f0 be 1e ab 7a be 93 01 c5 3e
       -0.29848108 -0.4699306 -0.24479339 0.38477764
000020 91 5f d9 bc 8f 85 e0 be
       -0.026534827 -0.43851897

weight f4 [3, 10]
000000 7f 75 30 bf 70 6f 5a 3f 52 b0 9f 3e 28 f4 42 3f
       -0.68929285 0.8532629 0.3118921 0.761538
000010 ff 90 27 be 87 ae ed be 64 60 33 be 25 1c d5 3e
       -0.16363905 -0.46422216 -0.17517239 0.41623035
000020 6f c8 3e bf 54 09 44 bf a2 b4 af 3d 1a 6a 04 3f
       -0.7452459 -0.76576734 0.08579375 0.517244
000030 98 56 91 3e 52 11 c0 3e 11 9a a1 3e 03 7b eb 3e
       0.28386378 0.37513214 0.31562856 0.45992288
000040 0e 5e 1f 3e 71 01 f3 3d f8 fe 53 bc 83 a6 0f 3e
       0.15563223 0.11865509 -0.012939207 0.14028363
000050 fb 05 62 3e f6 94 64 bf 53 e3 03 bf 89 6c 45 bf
       0.22072594 -0.89289796 -0.51518744 -0.77118737
000060 b1 db 50 be 1c 2d 18 3f 64 74 5a be da f9 32 bf
       -0.20396306 0.5944383 -0.21333462 -0.69912493
000070 6f 4e 7d 3e 58 f6 99 3e
       0.24736951 0.30070758

bias f4 [3]
000000 05 8c 0f 3f 36 40 5a be 9e 2b 0f bf
       0.5607303 -0.21313557 -0.5592593
