ENGINE/DIRS/AI/MLOPS/mlruns/0/b0e631cd1b444312a6be72a76f6268ef/artifacts/pytorch-model/data/model.pth (torch, 5079 bytes, 6 tensors)

weight f4 [10, 4]
00000000: ee88 723d 41a7 d8be 7252 82be 443f 013e
00000010: 0202 f1be 1287 993e a8a9 d2bd 0a3d 823e
00000020: 4660 c53c d4ec 46be 5d36 e33e b7c5 d13e
00000030: d7ec 8d3e 43ed 51be 9ec0 3f3e 686d 0d3e
00000040: 76aa 62bd cabf 9dbe eebf 473f d408 313f
00000050: 08ac 3ebe 369d 9abe 70a3 abbd b0d8 5cbe
00000060: a322 29be 4be1 2cbe 3170 393f 3a69 663f
00000070: f47f 0cbf eae7 7f3e f114 a33d 6515 d43e
00000080: aef9 a83e 5240 e9be 2e68 f3be 3cf4 76be
00000090: d153 3f3f 656b a93e 6b3a 053e 2e36 16bf
0.059212618 -0.42315105 -0.25453526 0.1262179 -0.47071844 0.29985863 -0.102862656 0.25437194
0.024093758 -0.1942628 0.44377413 0.40971157 0.27719757 -0.20500664 0.18725821 0.13811266
-0.055338345 -0.30810386 0.78027236 0.69154096 -0.18620312 -0.30198067 -0.083807826 -0.21567035
-0.16517119 -0.16882817 0.72436816 0.90004313 -0.5488274 0.24990812 0.07962979 0.41422573
0.3300299 -0.45556885 -0.4754042 -0.24116606 0.7473727 0.33089748 0.13010566 -0.5867642

bias f4 [10]
00000000: 8b0f 923e 5ca0 58be dbd8 7b3e 2fdf 993d
00000010: e2d2 1cbf 7a96 833e d759 fabe 4b2d b23d
00000020: fcd7 13be 7150 f23e
0.28527483 -0.21154922 0.24594443 0.07513272 -0.6125928 0.25700742 -0.48896667 0.08700045
-0.1443786 0.47326997

weight f4 [10, 10]
00000000: e163 46be e063 1abe 6412 1b3f 52a5 813e
00000010: d978 433f b9c8 813e 776d fc3e d0aa 1abe
00000020: 4631 453e 5c83 5ebd 90f7 a4bd 6e55 523e
00000030: 8d0a 2f3d 529c b83e 2645 39bf 8035 55bd
00000040: e31e 1abf 082f 3d3d 36c0 75be ddad e43e
00000050: 5dd2 a53d 74dd 97bd ac0c 83bd f3a6 69bb
00000060: 0fcc 82be 5068 8e3d d864 d5be be0e c63d
00000070: 0ef2 95be 2914 c53e 36a3 83be b052 74be
00000080: 16de 10be ab13 18bb cfca 7abe bb88 3bbe
00000090: 0b98 5ebf 2b2d 2e3e 9810 40bd 0a70 253f
000000a0: 5834 d03d 92d2 72be d01b 823d 408f 9b3d
000000b0: 8cd0 58be 6ea4 19be dcd3 dc3d 0803 683d
000000c0: 34be 09be 9c0c c4bd 41b1 c53e 00a7 6fbd
000000d0: 5cbe 043f 3e4b a83e 0ad4 793e 1eb1 89be
000000e0: 4a0e 503f c6c8 9c3d 8ef6 5d3e 7235 37bd
000000f0: 569d 2a3d cae0 713e 138e 753e 872f 8abe
00000100: 090e a8bc a6a6 713e 5d17 2d3e 64ad 0b3e
00000110: 475a 6abe 7856 93be 684e 86be f8b8 223d
00000120: be08 d93d e61e 42be 95b2 6fbe 9f3a 33be
00000130: b372 4dbf 0a50 02be f692 3a3e 0a88 1c3f
00000140: 8d93 febd 408b 8c3d 2961 d93e 62b5 503e
00000150: 8621 053f 761d 663e 4e1b 213f 3c1d 113e
00000160: c86e 5dbe 7371 d9be 0527 ddbd 28d4 16bd
00000170: 65ea 353e f7c7 fb3e 71f3 023f b6a5 92bd
00000180: 01e1 113f d1a7 2c3d fab3 453e 7b5b 09bd
-0.19374038 -0.15077162 0.60574937 0.25321442 0.76356274 0.25348452 0.49302265 -0.15104222
0.19257078 -0.054324493 -0.08055031 0.20540401 0.04273467 0.36056763 -0.7237114 -0.052052975
-0.6020338 0.04618743 -0.23999104 0.44663897 0.08096764 -0.07415286 -0.06398901 -0.0035652488
-0.2554631 0.0695349 -0.416785 0.096707806 -0.29286236 0.38491943 -0.25710458 -0.23859668
-0.14147219 -0.0023205082 -0.24491428 -0.18313877 -0.8695075 0.17009418 -0.046890825 0.64624083
0.10166234 -0.23713139 0.06352961 0.07595682 -0.21173304 -0.15004131 0.107825965 0.056643516
-0.13451463 -0.095727175 0.38611796 -0.058508873 0.51852965 0.32869905 0.24397293 -0.26892942
0.81271803 0.07655482 0.21676084 -0.044728704 0.041653953 0.23620906 0.23979978 -0.26989385
-0.020514505 0.23598728 0.16903444 0.13640362 -0.22886 -0.28776908 -0.26231694 0.03972718
0.105973706 -0.189571 -0.23407967 -0.17502831 -0.8025314 -0.12725845 0.18220124 0.6114508
-0.12430487 0.06862497 0.4245694 0.20381692 0.5200428 0.22472176 0.6293229 0.14171308
-0.21624291 -0.42469367 -0.10798458 -0.03682342 0.17765196 0.49176 0.5115271 -0.07160513
0.56983954 0.04215223 0.19306937 -0.03353451

bias f4 [10]
00000000: f602 cfbe 07d2 7a3f 5350 ce3e f08b 0d3f
00000010: 83d2 98be c688 f0be 1eab 7abe d1c2 c43e
00000020: ea6f dcbc 7d41 e0be
-0.40431947 0.97976726 0.40295658 0.5529165 -0.29848108 -0.4697935 -0.24479339 0.38429883
-0.026908834 -0.43799964

weight f4 [3, 10]
00000000: e06c 30bf 5bad 5a3f eca4 9f3e c2f7 423f
00000010: ff90 27be af70 edbe 6460 33be a26a d43e
00000020: f2c8 3ebf 41f4 43bf 01a4 af3d 1bd3 043f
00000030: bd6f 913e 4b54 c03e 119a a13e 369e eb3e
00000040: 0e5e 1f3e 78a9 ee3d b0db 4cbc f197 0f3e
00000050: c4b4 623e 70a7 64bf 28e4 03bf 016d 45bf
00000060: b1db 50be 2033 183f 6474 5abe 79a1 32bf
00000070: 8989 7d3e e302 9a3e
-0.6891613 0.8542077 0.31180513 0.761593 -0.16363905 -0.46375033 -0.17517239 0.41487604
-0.7452537 -0.76544577 0.08576203 0.5188462 0.28405562 0.3756431 0.31562856 0.46019143
0.15563223 0.11653417 -0.012503549 0.14022805 0.22139269 -0.8931799 -0.51520014 -0.7711945
-0.20396306 0.5945301 -0.21333462 -0.6977764 0.24759497 0.30080327

bias f4 [3]
00000000: 3c93 0f3f 5410 5abe 9c3d 0fbf
0.56084037 -0.21295291 -0.55953383
