ENGINE/DATALAKE/TIMESERIES/lr_find_temp_model.ckpt (torch, 277095 bytes, 97 tensors)

prescalers.pred.weight f4 [16, 1]
000000 7c 91 6c bf 86 97 78 bf 80 30 6f bd c8 6e bf 3e
       -0.9240949 -0.97106206 -0.058395863 0.37389207
000010 80 f7 87 3c 30 c3 52 3e 90 ea d1 be bc 61 95 be
       0.01659751 0.2058227 -0.4099927 -0.29176128
000020 58 52 78 bf 96 33 50 bf 88 83 87 3e 10 6f 43 bf
       -0.97000647 -0.81328714 0.26467538 -0.7634134
000030 dc eb f7 be 9a 78 77 bf 50 4d 85 3d 78 ca 3e bf
       -0.48422134 -0.966684 0.06508887 -0.7452769

prescalers.pred.bias f4 [16]
000000 30 b7 cf be 80 ea 38 bf 24 9b dd 3e 2e e8 39 bf
       -0.40569448 -0.7223282 0.43282425 -0.72619903
000010 58 80 66 3e 6e f7 00 3f e0 36 06 bd 02 6e 6d 3f
       0.22509897 0.5037755 -0.032767177 0.92745984
000020 e4 75 77 3f 50 1c 98 3d 0e c3 53 bf 38 6f 16 be
       0.9666426 0.07427275 -0.82719505 -0.14690864
000030 80 25 49 bd 5c 35 94 be 18 e9 8a be 60 dc 89 3d
       -0.04910803 -0.2894696 -0.2713096 0.06731486

encoder_variable_selection.single_variable_grns.pred.resample_norm.mask f4 [32]
000000 00 00 00 00 00 00 00 00 00 00 00 00 00 00 00 00
       0.0 0.0 0.0 0.0
000010 00 00 00 00 00 00 00 00 00 00 00 00 00 00 00 00
       0.0 0.0 0.0 0.0
000020 00 00 00 00 00 00 00 00 00 00 00 00 00 00 00 00
       0.0 0.0 0.0 0.0
000030 00 00 00 00 00 00 00 00 00 00 00 00 00 00 00 00
       0.0 0.0 0.0 0.0
000040 00 00 00 00 00 00 00 00 00 00 00 00 00 00 00 00
       0.0 0.0 0.0 0.0
000050 00 00 00 00 00 00 00 00 00 00 00 00 00 00 00 00
       0.0 0.0 0.0 0.0
000060 00 00 00 00 00 00 00 00 00 00 00 00 00 00 00 00
       0.0 0.0 0.0 0.0
000070 00 00 00 00 00 00 00 00 00 00 00 00 00 00 00 00
       0.0 0.0 0.0 0.0

encoder_variable_selection.single_variable_grns.pred.resample_norm.norm.weight f4 [32]
000000 00 00 80 3f 00 00 80 3f 00 00 80 3f 00 00 80 3f
       1.0 1.0 1.0 1.0
000010 00 00 80 3f 00 00 80 3f 00 00 80 3f 00 00 80 3f
       1.0 1.0 1.0 1.0
000020 00 00 80 3f 00 00 80 3f 00 00 80 3f 00 00 80 3f
       1.0 1.0 1.0 1.0
000030 00 00 80 3f 00 00 80 3f 00 00 80 3f 00 00 80 3f
       1.0 1.0 1.0 1.0
000040 00 00 80 3f 00 00 80 3f 00 00 80 3f 00 00 80 3f
       1.0 1.0 1.0 1.0
000050 00 00 80 3f 00 00 80 3f 00 00 80 3f 00 00 80 3f
       1.0 1.0 1.0 1.0
000060 00 00 80 3f 00 00 80 3f 00 00 80 3f 00 00 80 3f
       1.0 1.0 1.0 1.0
000070 00 00 80 3f 00 00 80 3f 00 00 80 3f 00 00 80 3f
       1.0 1.0 1.0 1.0

encoder_variable_selection.single_variable_grns.pred.resample_norm.norm.bias f4 [32]
000000 00 00 00 00 00 00 00 00 00 00 00 00 00 00 00 00
       0.0 0.0 0.0 0.0
000010 00 00 00 00 00 00 00 00 00 00 00 00 00 00 00 00
       0.0 0.0 0.0 0.0
000020 00 00 00 00 00 00 00 00 00 00 00 00 00 00 00 00
       0.0 0.0 0.0 0.0
000030 00 00 00 00 00 00 00 00 00 00 00 00 00 00 00 00
       0.0 0.0 0.0 0.0
000040 00 00 00 00 00 00 00 00 00 00 00 00 00 00 00 00
       0.0 0.0 0.0 0.0
000050 00 00 00 00 00 00 00 00 00 00 00 00 00 00 00 00
       0.0 0.0 0.0 0.0
000060 00 00 00 00 00 00 00 00 00 00 00 00 00 00 00 00
       0.0 0.0 0.0 0.0
000070 00 00 00 00 00 00 00 00 00 00 00 00 00 00 00 00
       0.0 0.0 0.0 0.0

encoder_variable_selection.single_variable_grns.pred.fc1.weight f4 [16, 16]
000000 3f b2 e4 be c8 e8 b5 be 46 c5 97 be 20 be 37 be
       -0.4466724 -0.3552916 -0.29642695 -0.1794362
000010 8c b8 e5 3e c5 1f cc 3d f9 11 ed 3e 57 09 8a 3e
       0.4486736 0.09966997 0.46302775 0.2696025
000020 21 8c 94 be 65 3b fe bd 2d 6e b8 bd d6 b3 a7 3e
       -0.2901316 -0.12413672 -0.09005389 0.3275439
000030 c1 32 bb be df 8e 3c 3e e4 01 89 3b 22 6a e0 3d
       -0.3656216 0.18413876 0.0041811336 0.10957743
000040 99 2d a1 be 05 91 3b 3d 0f 31 1d be 2b a0 da be
       -0.314801 0.0457926 -0.15350746 -0.42700323
000050 6d 78 83 be 6a 94 0a bd 24 7f 75 be d9 ae ee be
       -0.25677815 -0.033832945 -0.23974282 -0.46617773
000060 10 1b 38 3e dc 3c b8 bd a9 39 c1 3e a6 35 86 3c
       0.17979074 -0.08995983 0.37739304 0.016383003
000070 0b 94 5a 3e f6 02 d0 3e 6c a0 40 3b c2 fa 96 be
       0.21345536 0.4062726 0.0029392494 -0.29488188
000080 89 9e f9 bd 7d 0d 3d 3d ab 26 46 be f2 fb 4d 3e
       -0.12188441 0.04615544 -0.19350688 0.20115641
000090 4a 6c cd bd 7e 2c b8 3d ef 39 32 3e 52 81 4f bf
       -0.1003042 0.08992861 0.17404912 -0.810567
0000a0 ff 92 20 3e f0 df a1 be f6 b8 83 3e d1 99 ef 3c
       0.15681075 -0.31616163 0.25727051 0.02924815
0000b0 08 05 b6 3e 9a 9d 70 be e1 67 31 bc ba 48 47 be
       0.35550714 -0.2349762 -0.010827989 -0.19461337
0000c0 7e a9 60 be f7 04 c3 3d 5b a6 dc 3e 35 1d 70 bc
       -0.21939656 0.09522431 0.4309567 -0.014655401
0000d0 d9 3f a0 3e 17 0a d4 3d 39 88 33 bf f4 3d b0 bd
       0.31298712 0.10353487 -0.70129734 -0.086055666
0000e0 75 19 99 be f0 4e 27 be 36 d7 84 3e ab af 99 be
       -0.29902235 -0.16338706 0.25945443 -0.30016837
0000f0 3f a1 02 3f 26 35 c4 3e f3 6f 00 bf ec c4 0b be
       0.5102729 0.383218 -0.5017082 -0.13649338
000100 e1 70 e8 3e 15 45 af 3d ad 35 c5 be fb 29 67 be
       0.4539862 0.08558098 -0.38517514 -0.22574608
000110 9a 4b 05 bf f7 99 d6 3d a4 b0 25 bf 9f 0b f0 bd
       -0.52068484 0.10478585 -0.6472266 -0.117209665
000120 64 38 b5 bd 67 6e 73 be 0d 28 91 3e d2 c0 8a 3d
       -0.08848646 -0.23772584 0.2835087 0.06775059
000130 78 08 34 3e 4d 92 31 3e 78 05 9d bd 7f 36 31 3e
       0.17581356 0.17340966 -0.07667059 0.17305945
000140 7f 7b e7 3d 4a 9a 14 bf 04 bf 81 3e 2b 8f 16 3f
       0.11302852 -0.58047926 0.25341046 0.58812207
000150 f0 9f 1c 3e 53 34 95 3e 3a b8 15 bc 18 eb 48 bd
       0.15295386 0.29141483 -0.009138161 -0.049052328
000160 f7 6c 9d be 75 a6 d1 be 37 2b 49 bd 74 ec 6c 3d
       -0.30747196 -0.4094731 -0.04911348 0.057842687
000170 3c 4c e0 bb 06 e3 0b 3f 1d 00 08 be 4d 0b 28 3e
       -0.0068450253 0.54643285 -0.13281293 0.16410561
000180 cb 86 b3 3e b6 08 36 bf 54 93 2a 3e 3c 5f a3 be
       0.35063776 -0.7110704 0.16657764 -0.31908596
000190 85 e0 06 3f 21 ef b5 be fd 29 84 be 36 ec 25 3f
       0.5268634 -0.35534003 -0.25813285 0.64813554
0001a0 81 81 97 bd 27 02 7a bc 15 65 e1 3d cd da c9 be
       -0.07397748 -0.015259302 0.11005608 -0.39424744
0001b0 c8 80 0a 3f f8 3a ef 3e 92 e4 03 3e a2 df 31 be
       0.54102755 0.46724677 0.12880161 -0.17370465
0001c0 5a 04 ea 3e d1 9f 11 bf b0 ec 08 3f b6 72 32 bb
       0.45706445 -0.56884485 0.53486156 -0.0027229018
0001d0 51 65 b8 3e 6b 22 65 3f 91 c7 2b 3e 12 29 29 3e
       0.36014798 0.8950564 0.16775347 0.16519573
0001e0 f3 ea 40 3e a0 c8 ef be 94 21 03 3e 85 1b 8a be
       0.18839626 -0.46832752 0.12805778 -0.2697412
0001f0 d0 00 e2 be 0e e0 df bb d6 3f 8a 3d 5a 96 2a 3e
       -0.44141245 -0.0068321293 0.06750457 0.16658917
000200 f8 34 e3 3d 2a 53 ce bd 60 70 67 3e 16 97 ef be
       0.11094087 -0.10074456 0.22601461 -0.46794957
000210 0b 8e 57 3e c1 96 1c be 1d 0e 81 be 1a 1f 09 3f
       0.21050279 -0.15291883 -0.2520608 0.5356308
000220 7e 7e 85 3c 31 34 2e bf 56 78 83 3e 82 39 00 3e
       0.016295668 -0.6804839 0.25677747 0.12521937
000230 8b a1 e6 3e 19 2c 1b bf 6c 4d 11 bc ed ce 15 3f
       0.45045123 -0.6061416 -0.0088685565 0.5851887
000240 d4 2a c8 be 48 d1 88 bc 71 44 37 3e f8 62 fa be
       -0.39095175 -0.016701356 0.17897202 -0.48903632
000250 fa 19 4e bf a5 70 94 3d 06 ac 57 3e 99 f6 de be
       -0.8050839 0.07248048 0.21061715 -0.43547514
000260 9f fc 0a 3f c6 29 cb 3d 47 d7 97 be a8 b2 d7 3e
       0.5429172 0.09920077 -0.2965643 0.4212849
000270 eb 88 71 3e e8 34 c8 3c 6c f1 6e bd 96 3c ae 3d
       0.23587386 0.02443929 -0.058335707 0.085076496
000280 7b 7f 95 3e 31 55 bc bd b7 11 5b be ea ab 55 3e
       0.29198822 -0.091959365 -0.21393476 0.20866361
000290 87 2e 68 3e 81 a1 4d be 2d 61 b7 3c 1b a8 63 3d
       0.22673999 -0.2008114 0.022385204 0.05558024
0002a0 af fd bf be 25 dc 52 bd b7 a7 03 3d 6c 86 00 3f
       -0.37498233 -0.051479477 0.032142367 0.5020511
0002b0 86 5a 11 3e 25 1e 99 be 89 da 25 3e c5 2e 26 bf
       0.14194688 -0.2990581 0.16196646 -0.64915115
0002c0 98 70 52 3f 1a 22 d3 3e 11 dd 07 bf d3 94 6f 3e
       0.82203054 0.41236955 -0.53071696 0.23396616
0002d0 78 25 d7 3e 4f 24 50 bf cb c5 ff 3e a6 d7 5a be
       0.42020774 -0.813054 0.49955592 -0.21371326
0002e0 e5 c3 18 bf b7 43 d3 3d 70 7f 70 3e 68 47 e1 3e
       -0.5967391 0.1031565 0.23486114 0.4399979
0002f0 df fc be be 95 a1 ae be 6f d5 65 be 3b 96 07 bf
       -0.373023 -0.34107652 -0.224447 -0.5296361
000300 95 98 df 3e 28 c5 3f be 4d 63 ff 3c ee 7b 85 be
       0.43671098 -0.18727553 0.03117528 -0.26071113
000310 5f 77 3e 3e ef a0 b8 3e 68 27 c4 3d 8c 88 42 3e
       0.18600224 0.36060283 0.09577829 0.18997401
000320 49 a0 16 bf 88 68 22 be 12 42 29 3d 83 70 0e 3f
       -0.58838326 -0.15860188 0.041322775 0.5564043
000330 bd 8f 33 be 52 e2 45 3f ab 8b 25 be 1d 89 93 be
       -0.175353 0.7729846 -0.1616656 -0.28815547
000340 54 e2 06 3f 2f df 0a be ec 16 a8 3e 74 4c 6d be
       0.526891 -0.135617 0.32829988 -0.23173696
000350 b5 5d 18 3e 83 38 8c be bb cf 4b 3d 01 90 7c bd
       0.14879496 -0.27386865 0.049758654 -0.06166077
000360 f3 c3 9b 3d 88 cc af bd 7c 5c 34 bd 12 7e 69 3d
       0.07605734 -0.08583933 -0.044033512 0.057004996
000370 41 27 92 be 73 14 03 3e 11 db f4 3e 86 ae 9f 3e
       -0.28545573 0.1280077 0.47823384 0.31187838
000380 5a ea 22 3f b2 e9 d9 3e 58 44 ea 3d 25 bc 6a 3d
       0.6363884 0.42561108 0.11438817 0.057308335
000390 3a b3 da 3d 47 af db 3d 27 8c c3 3e 99 a1 0e bc
       0.10678716 0.10726791 0.38192865 -0.00870552
0003a0 75 77 15 3d ce 1f d1 3e bb 28 93 3e cb 81 3b be
       0.036490876 0.40844578 0.28742012 -0.18311231
0003b0 79 88 d0 3e e6 fd 4f bf 2a 51 cf 3e 4b 02 21 bf
       0.4072912 -0.81246793 0.4049161 -0.62894124
0003c0 81 2e dc bc 6d 0f 31 be 22 99 9d be 84 f1 bd be
       -0.026877644 -0.1729104 -0.30780894 -0.37098324
0003d0 ed 94 1f be 2f e5 1e 3f 88 f7 95 3d 2a 14 8f be
       -0.15584154 0.62068456 0.073226035 -0.2794507
0003e0 45 f7 04 3e 06 df 43 3f c8 87 85 3d 4d d5 57 3e
       0.12984951 0.7651218 0.06520039 0.21077462
0003f0 36 c5 98 3e 69 af 8d 3c 89 ba f8 bd 1c ce 25 3f
       0.2983796 0.017295556 -0.12144954 0.6476762

encoder_variable_selection.single_variable_grns.pred.fc1.bias f4 [16]
000000 00 00 00 00 00 00 00 00 00 00 00 00 00 00 00 00
       0.0 0.0 0.0 0.0
000010 00 00 00 00 00 00 00 00 00 00 00 00 00 00 00 00
       0.0 0.0 0.0 0.0
000020 00 00 00 00 00 00 00 00 00 00 00 00 00 00 00 00
       0.0 0.0 0.0 0.0
000030 00 00 00 00 00 00 00 00 00 00 00 00 00 00 00 00
       0.0 0.0 0.0 0.0

encoder_variable_selection.single_variable_grns.pred.fc2.weight f4 [16, 16]
000000 09 a0 56 be 7f c8 6c 3e db c6 56 bf f2 39 35 3e
       -0.20959486 0.23123358 -0.8389718 0.17697886
000010 a4 36 8d 3d 29 91 b6 bd 64 2f b1 3d 7c ad 45 3e
       0.068951875 -0.08914406 0.08651617 0.1930446
000020 49 cc 52 be 0b fe c5 3d 0d 5f ef bd 9b 31 27 be
       -0.20585741 0.096675955 -0.116880514 -0.16327517
000030 43 8a 81 be 99 49 6e 3e 27 bb b9 be a0 e0 43 3e
       -0.25300798 0.23270263 -0.36275598 0.19128656
000040 0a b1 c0 bd b6 cf f3 3d ef ba 24 be e4 25 8f 3e
       -0.094087675 0.11904852 -0.16086935 0.27958596
000050 04 a1 ca 3e ae 43 3d bf c7 d4 d9 bd 1c 0c 80 3e
       0.3957597 -0.73931396 -0.10636287 0.2500924
000060 c9 dd 3e be 1e 43 21 be da 61 f0 3c a4 11 f7 3d
       -0.18639292 -0.1574826 0.029343534 0.120639116
000070 78 8f c5 3e d2 6d aa 3d 65 39 f8 3d fc e9 19 3e
       0.3858602 0.08321728 0.12120322 0.15030664
000080 e9 01 8a be 97 4b 83 3d e6 c0 11 bd f1 fb 20 bf
       -0.26954582 0.06410902 -0.035584353 -0.6288443
000090 62 fa bf 3e 15 3f 1b 3d 3d 2d 88 3e 23 a3 35 bf
       0.37495714 0.037901957 0.26597014 -0.7095205
0000a0 31 f3 fb 3e 33 6a 3b be 71 f7 0d 3f dc 63 fc be
       0.49208978 -0.1830223 0.5545569 -0.49294937
0000b0 9d 4c a7 be 93 01 cb be da ed 11 3f 48 09 d0 3d
       -0.3267564 -0.3964964 0.5700356 0.1015802
0000c0 0b c2 57 3e 61 31 19 3f 8f 7f c8 3e ae 3a 2b bd
       0.21070115 0.5984097 0.3915982 -0.04180401
0000d0 15 e8 83 3e 6b 62 0a 3f 7b 7d d1 be 39 d9 95 be
       0.25763002 0.54056424 -0.40916047 -0.2926729
0000e0 9d 6a 33 3f 40 ed 06 3f a3 bd cf 3e 62 e1 7e 3e
       0.70084554 0.52705765 0.4057437 0.24890664
0000f0 99 a6 58 3b aa c3 30 3e 14 fd 1a 3e 3f 24 4c 3e
       0.0033058284 0.1726214 0.15135604 0.19935702
000100 8b 74 fe be eb 71 39 be a8 30 18 3e 2e 00 18 3f
       -0.4969829 -0.18109863 0.14862311 0.59375274
000110 51 0e 0d 3d 0e aa 54 3e b1 4a bd 3e 87 77 56 3d
       0.03443748 0.20767996 0.36971048 0.052360084
000120 ff 07 d1 be 0b fd f2 bd 98 f1 ce be 30 97 ec 3d
       -0.40826413 -0.1186467 -0.40418696 0.11552274
000130 39 e9 8e 3e 9a d8 dd 3d 40 d4 1c 3f 99 c7 15 bf
       0.2791231 0.10832329 0.6126137 -0.58507687
000140 db 1b 2b 3f f5 3b 10 bf fb 12 1a 3f 8e af b3 bd
       0.6683938 -0.5634149 0.6018521 -0.08773719
000150 fb 20 e3 3e 7e dd 02 3f 5f 87 8f be ec ed 34 3d
       0.443611 0.5111922 -0.28032967 0.044172212
000160 92 3a a7 be fd f4 fa be 75 a3 90 be 63 35 a6 3e
       -0.32661873 -0.49015036 -0.28249708 0.32462606
000170 a7 da 02 3f 46 72 31 bf 32 6f 1e be d9 15 22 be
       0.51114887 -0.6931499 -0.15472105 -0.15828647
000180 4b e8 8a be 03 dd 1c 3d e2 d9 4d be 02 4c 4b bf
       -0.2713035 0.03829671 -0.20102647 -0.79412854
000190 67 bf 84 bb 08 66 15 be 9d ac 4d bf 8a 3e d8 bd
       -0.0040511372 -0.14589703 -0.8034151 -0.105588034
0001a0 8a 4b 07 bf 7d b4 5f be 5a 27 53 be e6 f2 e1 3e
       -0.5284964 -0.21846195 -0.2062048 0.4413063
0001b0 6e 77 4c bd 8b 1a 97 bc 17 66 3d 3e 43 91 17 bf
       -0.049918585 -0.018445274 0.18495975 -0.59206027
0001c0 10 52 23 3e a5 4f 97 be 09 8b 70 3e e6 ed 64 bf
       0.15949273 -0.2955295 0.23490538 -0.89425504
0001d0 0b db db be 6b 75 d0 3e 30 26 fc 3e 31 34 3f be
       -0.42940554 0.40714583 0.49247885 -0.18672253
0001e0 b1 a1 bf be 07 df 24 3f ee cb 85 be 0d 68 54 3e
       -0.37428048 0.6440281 -0.26132149 0.20742817
0001f0 55 ea db ba 2c d6 e3 3d 4e d6 08 3e 9d f8 8c 3e
       -0.001677821 0.111248344 0.13363001 0.27533427
000200 d8 e1 36 bd ea f9 21 bf 5d ed 43 3e 06 20 dd 3d
       -0.044648975 -0.63271964 0.19133516 0.107971236
000210 7f 7d 29 be f9 ff 1e 3f 1d 9c 93 3e f5 16 81 be
       -0.16551779 0.62109333 0.28830042 -0.25212827
000220 ac e8 0a 3f 0e b8 ec 3e 4c c7 8b 3e 10 90 00 be
       0.5426128 0.46234173 0.2730049 -0.12554955
000230 26 81 ea 3e 5c e0 a4 3d c3 61 10 3f b1 73 64 be
       0.45801657 0.08050606 0.5639917 -0.22309758
000240 bb c4 80 3e 7c 17 03 3f 42 80 0b 3d a2 41 28 bd
       0.25150093 0.5120771 0.034057863 -0.041078217
000250 a5 d2 54 3e a9 4d db 3c 0a b1 97 3e 5b 7d 38 bd
       0.2078348 0.02677043 0.29627258 -0.045041423
000260 d0 50 51 3f 8c a0 1b 3e 4b 4a 22 be 49 3a 22 bf
       0.81763935 0.15197963 -0.15848653 -0.63370186
000270 06 67 3a be 72 8c 22 3e ac 2c e8 bd 1e fb f3 3d
       -0.18203363 0.15873888 -0.113366455 0.11913131
000280 42 14 97 3d a6 47 46 be ab 01 dc 3d 08 e2 5b 3e
       0.07376911 -0.19363269 0.10742506 0.21472943
000290 ae 67 06 3d a2 b2 dd 3d 08 3e a9 be 89 6b c6 be
       0.03281372 0.10825087 -0.3305514 -0.38753918
0002a0 c7 0c cd 3c 1c d9 51 3e 1f 22 20 be 13 56 f9 3d
       0.025030507 0.20492977 -0.15638016 0.121746205
0002b0 26 1d 41 3e 15 c4 ae 3d 40 56 e2 bc 79 4d 87 3d
       0.18858775 0.085334934 -0.027629018 0.066065736
0002c0 3e 15 91 be 44 36 bc 3d b6 12 ab be e2 99 18 3f
       -0.2833652 0.09190038 -0.33412713 0.59609807
0002d0 6f 59 8a be 4a e0 a0 be 0d f4 e4 3d d5 45 73 3d
       -0.27021357 -0.3142112 0.111793615 0.05939277
0002e0 bb 63 8c be 8f 8a f6 3e 85 85 c3 3e c8 37 3d bc
       -0.27419838 0.48152587 0.38187805 -0.011548944
0002f0 81 6d cb 3a 34 f6 19 3f fc ae 94 bd d6 0c 8c 3e
       0.0015520306 0.601413 -0.07259938 0.27353543
000300 bb b5 0d 3e 9f 37 41 3e 10 1f 02 bf 1e 2f e2 be
       0.13838856 0.18868874 -0.5082865 -0.44176573
000310 43 9a a2 3e 59 f7 b4 be 1c d1 87 be 7f 4b be bd
       0.31758317 -0.3534496 -0.26526725 -0.092917435
000320 23 e6 4d bf b6 8c 0d bf cc c5 0e 3e a5 b4 84 3e
       -0.80429286 -0.5529283 0.13942641 0.2591907
000330 2d 94 27 bf 82 3c b9 3d 1f 52 1f 3e 0a 85 56 3e
       -0.65460473 0.09044744 0.1555867 0.20949188
000340 03 5f db be 04 10 b6 bd 13 e2 0c 3e 27 44 18 3e
       -0.42845926 -0.088897735 0.13758115 0.14869748
000350 35 2b 28 3d ee f8 33 be 6e 12 a1 be 47 b5 c0 3d
       0.04105683 -0.17575428 -0.31459373 0.09409576
000360 cf 50 48 be 51 f8 27 bf c2 d0 d3 bd 08 19 86 3e
       -0.19562076 -0.65613276 -0.10342552 0.26190972
000370 9f 84 0e 3f 92 cd 5e 3e 11 e7 89 3b d7 a9 b6 3e
       0.55671114 0.21758106 0.0042084535 0.35676453
000380 4b 66 31 3e 5a e7 03 be 84 4f f6 bd 34 b9 77 3e
       0.17324178 -0.12881222 -0.12026885 0.24191743
000390 b4 c3 24 bc fe e5 b3 3e c6 b5 ab be b1 2d 66 be
       -0.010056425 0.35136408 -0.3353712 -0.22478367
0003a0 a6 35 bb 3e 34 0a 37 3f 8c 70 fc be 4b 79 5a 3e
       0.36564368 0.71499944 -0.49304616 0.21335332
0003b0 ac 43 99 be 08 5c 65 3e 9e 8b 85 be 99 94 20 3f
       -0.29934442 0.22398388 -0.26083082 0.6272674
0003c0 e6 8b 3f be cd eb ef bd 65 83 33 bf 63 87 d4 be
       -0.18705711 -0.11714897 -0.7012237 -0.41509542
0003d0 1d 59 96 3e 98 6e b0 be dd 73 31 be 4f 6b db bd
       0.29364863 -0.34459376 -0.17329355 -0.10713827
0003e0 66 30 8c bd 25 fd b5 3e 6e da f5 ba 2d 05 f7 bd
       -0.06845169 0.35544696 -0.0018757114 -0.12061534
0003f0 81 2c 3b 3e 44 18 40 be 4d ed 60 3e a0 c6 47 be
       0.18278696 -0.18759257 0.21965523 -0.19509363

encoder_variable_selection.single_variable_grns.pred.fc2.bias f4 [16]
000000 00 00 00 00 00 00 00 00 00 00 00 00 00 00 00 00
       0.0 0.0 0.0 0.0
000010 00 00 00 00 00 00 00 00 00 00 00 00 00 00 00 00
       0.0 0.0 0.0 0.0
000020 00 00 00 00 00 00 00 00 00 00 00 00 00 00 00 00
       0.0 0.0 0.0 0.0
000030 00 00 00 00 00 00 00 00 00 00 00 00 00 00 00 00
       0.0 0.0 0.0 0.0

encoder_variable_selection.single_variable_grns.pred.gate_norm.glu.fc.weight f4 [64, 16]
000000 58 1c 6b bd 8c c3 db bd e0 77 c7 3d 80 66 6a 3b
       -0.057400078 -0.10730657 0.09739661 0.0035766661
000010 9a 4a 7d be d4 3b 22 be 54 b3 6a 3e 88 24 7c be
       -0.2473549 -0.15843135 0.22919971 -0.2462331
000020 74 84 6f 3e 08 b3 f8 bd 2e 5d 59 be 62 3e 49 3e
       0.2339037 -0.121435225 -0.21226951 0.19652703
000030 70 81 6e 3e 50 31 f2 3d c0 6b 6d 3e 3e 38 e9 bd
       0.23291564 0.11825812 0.23185635 -0.113876805
000040 88 91 98 3d 5f 55 5d be 00 4e 21 3a 14 22 3e 3e
       0.07449633 -0.21614598 0.00061532855 0.18567687
000050 52 bb 0d 3e c4 c4 c8 bd 20 e0 05 3e 00 30 ba 3b
       0.13840988 -0.09803155 0.13073778 0.0056819916
000060 fa 36 26 be bc 56 ec bd 9e 11 bc bd 4e e9 47 3e
       -0.1623191 -0.11539981 -0.09183048 0.19522592
000070 d4 e9 4a be 24 af c4 bd 20 16 08 3c cc f6 f2 bd
       -0.19815761 -0.09603718 0.008306056 -0.11863479
000080 28 3f ce 3d 98 4f 1c be 80 d1 89 3b 16 eb 0d 3e
       0.1007064 -0.15264738 0.0042058825 0.1385921
000090 4a 37 22 be 70 2e b7 bc 84 c9 a9 bd 9c 23 40 be
       -0.15841404 -0.02236101 -0.08290389 -0.18763584
0000a0 0c 8f 82 3e d6 cd 3c 3e 04 93 ee 3d e0 cc 4e 3e
       0.2549976 0.18437895 0.11649135 0.20195341
0000b0 72 2e 4f 3e 00 76 6a 3e 60 9f 34 bc 68 11 f1 bc
       0.20232561 0.22896576 -0.011024326 -0.029427245
0000c0 a6 ca 29 3e 1c f8 b8 3d 60 f4 4a bc c8 0e 8c 3e
       0.1658121 0.09031698 -0.012387365 0.27355027
0000d0 58 d9 d7 bc 54 c4 47 3e 60 27 dd bd ea 0f 51 be
       -0.026348755 0.19508487 -0.10798526 -0.20416227
0000e0 b4 a7 40 3e b4 51 3a bd 48 20 20 bd bd 9f 59 be
       0.18813974 -0.045488074 -0.039093286 -0.21252342
0000f0 78 fd 09 3d 68 33 19 bd 36 21 3d 3e 18 80 97 3d
       0.033688992 -0.03740254 0.184697 0.07397479
000100 fc 65 26 be 71 c2 16 be aa 31 17 3e 18 6d 87 3d
       -0.16249841 -0.14722611 0.14765039 0.06612605
000110 a0 5c 50 3c f6 38 81 3e d8 e5 a9 bd 8c e7 7b be
       0.012717396 0.2523877 -0.08295792 -0.24600047
000120 f4 ad 12 be 9e 04 33 be d4 f4 94 3d 89 cc 76 be
       -0.1432417 -0.1748223 0.0727326 -0.24101461
000130 53 32 59 be 6d 85 1f be 00 33 59 bc ea d9 10 be
       -0.21210603 -0.15578242 -0.013256788 -0.14145628
000140 bc bd 81 be e8 62 11 3d 80 3b 2d 3e 1a 05 53 3e
       -0.25340068 0.035494715 0.16917229 0.20607415
000150 1a 13 02 be d8 36 7c 3e 30 75 6f 3d 06 d2 56 3e
       -0.12702599 0.24630296 0.058461368 0.20978555
000160 c0 b5 a1 bb e2 31 c4 bd 5a 7d c0 bd c0 38 80 bc
       -0.0049349964 -0.09579827 -0.09398909 -0.01565206
000170 8a cd 42 be 86 b0 02 3e 2c 3f a6 bd 44 b1 3c 3e
       -0.1902372 0.12762651 -0.08117518 0.18426996
000180 38 f3 c3 3d b4 50 8e 3d 48 21 4b 3e 0e 7f 43 be
       0.09567875 0.06948987 0.19836915 -0.19091436
000190 06 cf 11 3e 22 9d 8e bd 12 87 1c 3e 0c 6e 8c bd
       0.1423913 -0.069635645 0.152859 -0.06856927
0001a0 31 53 26 be 84 6a 76 bd a0 8e 93 3d 90 f1 9f 3d
       -0.16242673 -0.060160175 0.07204938 0.07809746
0001b0 12 0a 7d be e6 0a 67 3e 20 a8 fc 3d 7e 4a 2e 3e
       -0.24710873 0.22562751 0.12336755 0.17020604
0001c0 5c c5 7e bd ac 0a a9 3d a8 a8 52 bd 90 d1 71 3e
       -0.062199935 0.082539886 -0.051430374 0.23615098
0001d0 92 66 44 3e 42 3a 34 be 4d 63 85 be 0c af 71 bd
       0.19179752 -0.17600349 -0.26052323 -0.05900483
0001e0 a4 19 67 3e a4 72 95 3d ee 52 80 3e 50 fa 84 3c
       0.22568375 0.072972566 0.2506327 0.01623264
0001f0 96 1f 98 bd 60 49 cc 3c 92 1a bc bd c4 27 4a be
       -0.074278995 0.024937332 -0.091847554 -0.19741732
000200 94 3a 3a be 4d 86 69 be b8 23 e5 3d 48 49 6e 3d
       -0.18186408 -0.22805138 0.111884534 0.058175355
000210 70 f1 1c bd fe 27 60 3e 80 0a a9 bd 70 08 3d be
       -0.03831619 0.21890256 -0.08253956 -0.1846025
000220 00 2c 38 3d 9e 34 61 be a8 b6 78 3e 00 1b cf bb
       0.044963837 -0.21992728 0.24288428 -0.0063203573
000230 58 5d 69 3e 60 c3 69 bd f0 9f b3 bc 10 8b b5 3d
       0.22789514 -0.05707109 -0.02192685 0.08864415
000240 ca 47 d8 bd 98 0e 7f 3e de f1 f8 bd 1d c0 83 be
       -0.10560568 0.24907911 -0.121555075 -0.25732508
000250 0c 86 8a 3e 28 32 c7 3d ad 8d 82 be 12 f6 4c be
       0.27055395 0.097263634 -0.25498715 -0.20015743
000260 e8 1f 7e 3e 1c 95 0a 3e a8 80 38 3e c0 cb de 3d
       0.24816859 0.13533443 0.18017828 0.10878706
000270 02 f2 31 be 78 5e 7f 3e fc 62 e2 3d 20 55 19 bd
       -0.17377475 0.2493838 0.11054036 -0.037434697
000280 70 54 35 3e ba 4b 27 3e e6 56 d6 bd dc 91 c4 bd
       0.17707992 0.16337481 -0.10465793 -0.09598133
000290 2c 56 99 3d 81 fc 63 be f8 81 e7 bc 5c a5 e6 3d
       0.07487139 -0.22264291 -0.028260216 0.112620085
0002a0 f0 95 ae 3d 24 25 8e 3d 89 a2 6c be 5a 89 43 be
       0.08524692 0.06940678 -0.23108877 -0.19095364
0002b0 da ff 39 be c8 f6 60 3e 4a cd aa bd 8e 7e 1f 3e
       -0.18164006 0.2196914 -0.08339937 0.1557562
0002c0 54 2c 7d be 58 db 65 3e 9c c7 9b 3d ab b7 6f be
       -0.24723941 0.22446954 0.07606432 -0.23409908
0002d0 7c 9d 86 3d 62 dd 95 bd 6e b8 3c 3e a8 ca c5 bd
       0.065730065 -0.07317616 0.1842973 -0.09657794
0002e0 12 0a 7c be a8 d9 b2 bd d9 79 61 be c8 70 aa bd
       -0.24613217 -0.08732921 -0.22019137 -0.083222926
0002f0 18 aa 89 be b8 d5 6c 3e 34 9c f3 bd f8 b2 79 3e
       -0.26887584 0.23128402 -0.11895028 0.24384677
000300 3e 98 29 be 9c 22 a8 3d 40 26 6a 3e 9d 40 68 be
       -0.16561982 0.08209726 0.22866154 -0.22680898
000310 0a 11 27 be f8 dc dc 3d 3c 0f 95 bd bc c3 5c 3e
       -0.16315094 0.10784334 -0.07278296 0.21559042
000320 ca 7c 6e be e4 85 e1 3d dc af be 3d 48 ae 25 3e
       -0.23289791 0.11011866 0.09310886 0.16179764
000330 ae 5f b4 bd b8 30 73 3d 38 2a 01 be 3d 70 69 be
       -0.08807312 0.059372634 -0.12613761 -0.22796722
000340 b6 8b b6 bd 80 2d 4c 3b 90 4e 2f be e0 9c bb 3c
       -0.089133665 0.003115505 -0.17119813 0.022901952
000350 ac e0 de bd 06 47 29 be 00 d2 94 3c c0 e1 6b 3c
       -0.108826965 -0.16531 0.018166542 0.014397085
000360 d8 39 79 3d e8 fb 10 be 5a 17 25 be 75 a1 86 be
       0.06084618 -0.14158595 -0.16122189 -0.26295057
000370 c4 8a 76 3e 3b 65 89 be 9e cc 57 be 2c 58 f8 3d
       0.24076372 -0.26835045 -0.21074149 0.121261925
000380 d9 3d 27 be 50 ac c1 3d 1c 52 06 3e 66 4d 85 3e
       -0.16332187 0.09456694 0.1311726 0.26035613
000390 ca 4c 34 be 6a 8a f6 bd c4 f9 25 3e 68 a9 f7 3d
       -0.17607418 -0.12038119 0.1620856 0.120928586
0003a0 68 7c 3a 3e 84 3d 30 be e6 3e 25 3e 10 78 c0 bd
       0.1821152 -0.17210966 0.16137275 -0.093979
0003b0 f0 f3 ec 3c ea 42 fb bd 62 b9 ca bd b6 f9 fc bd
       0.028924912 -0.12268622 -0.0989864 -0.12352316
0003c0 5e 45 12 3e 92 99 03 3e 98 de c8 bc c0 d9 1f be
       0.14284274 0.12851551 -0.024520203 -0.15610409
0003d0 83 85 22 be 70 a6 fa bd 34 fb 48 bd 96 b9 1b 3e
       -0.15871243 -0.12238777 -0.04906769 0.15207514
0003e0 38 82 0f bd 3c 33 cf bd 86 ad 7f be de 23 02 be
       -0.035036296 -0.10117194 -0.24968538 -0.12708995
0003f0 9c 08 27 3e 84 6a 9b 3d 3e 01 f6 bd df a5 50 be
       0.16311878 0.075886756 -0.12011956 -0.20375775

encoder_variable_selection.single_variable_grns.pred.gate_norm.glu.fc.bias f4 [64]
000000 00 00 00 00 00 00 00 00 00 00 00 00 00 00 00 00
       0.0 0.0 0.0 0.0
000010 00 00 00 00 00 00 00 00 00 00 00 00 00 00 00 00
       0.0 0.0 0.0 0.0
000020 00 00 00 00 00 00 00 00 00 00 00 00 00 00 00 00
       0.0 0.0 0.0 0.0
000030 00 00 00 00 00 00 00 00 00 00 00 00 00 00 00 00
       0.0 0.0 0.0 0.0
000040 00 00 00 00 00 00 00 00 00 00 00 00 00 00 00 00
       0.0 0.0 0.0 0.0
000050 00 00 00 00 00 00 00 00 00 00 00 00 00 00 00 00
       0.0 0.0 0.0 0.0
000060 00 00 00 00 00 00 00 00 00 00 00 00 00 00 00 00
       0.0 0.0 0.0 0.0
000070 00 00 00 00 00 00 00 00 00 00 00 00 00 00 00 00
       0.0 0.0 0.0 0.0
000080 00 00 00 00 00 00 00 00 00 00 00 00 00 00 00 00
       0.0 0.0 0.0 0.0
000090 00 00 00 00 00 00 00 00 00 00 00 00 00 00 00 00
       0.0 0.0 0.0 0.0
0000a0 00 00 00 00 00 00 00 00 00 00 00 00 00 00 00 00
       0.0 0.0 0.0 0.0
0000b0 00 00 00 00 00 00 00 00 00 00 00 00 00 00 00 00
       0.0 0.0 0.0 0.0
0000c0 00 00 00 00 00 00 00 00 00 00 00 00 00 00 00 00
       0.0 0.0 0.0 0.0
0000d0 00 00 00 00 00 00 00 00 00 00 00 00 00 00 00 00
       0.0 0.0 0.0 0.0
0000e0 00 00 00 00 00 00 00 00 00 00 00 00 00 00 00 00
       0.0 0.0 0.0 0.0
0000f0 00 00 00 00 00 00 00 00 00 00 00 00 00 00 00 00
       0.0 0.0 0.0 0.0

encoder_variable_selection.single_variable_grns.pred.gate_norm.add_norm.norm.weight f4 [32]
000000 00 00 80 3f 00 00 80 3f 00 00 80 3f 00 00 80 3f
       1.0 1.0 1.0 1.0
000010 00 00 80 3f 00 00 80 3f 00 00 80 3f 00 00 80 3f
       1.0 1.0 1.0 1.0
000020 00 00 80 3f 00 00 80 3f 00 00 80 3f 00 00 80 3f
       1.0 1.0 1.0 1.0
000030 00 00 80 3f 00 00 80 3f 00 00 80 3f 00 00 80 3f
       1.0 1.0 1.0 1.0
000040 00 00 80 3f 00 00 80 3f 00 00 80 3f 00 00 80 3f
       1.0 1.0 1.0 1.0
000050 00 00 80 3f 00 00 80 3f 00 00 80 3f 00 00 80 3f
       1.0 1.0 1.0 1.0
000060 00 00 80 3f 00 00 80 3f 00 00 80 3f 00 00 80 3f
       1.0 1.0 1.0 1.0
000070 00 00 80 3f 00 00 80 3f 00 00 80 3f 00 00 80 3f
       1.0 1.0 1.0 1.0

encoder_variable_selection.single_variable_grns.pred.gate_norm.add_norm.norm.bias f4 [32]
000000 00 00 00 00 00 00 00 00 00 00 00 00 00 00 00 00
       0.0 0.0 0.0 0.0
000010 00 00 00 00 00 00 00 00 00 00 00 00 00 00 00 00
       0.0 0.0 0.0 0.0
000020 00 00 00 00 00 00 00 00 00 00 00 00 00 00 00 00
       0.0 0.0 0.0 0.0
000030 00 00 00 00 00 00 00 00 00 00 00 00 00 00 00 00
       0.0 0.0 0.0 0.0
000040 00 00 00 00 00 00 00 00 00 00 00 00 00 00 00 00
       0.0 0.0 0.0 0.0
000050 00 00 00 00 00 00 00 00 00 00 00 00 00 00 00 00
       0.0 0.0 0.0 0.0
000060 00 00 00 00 00 00 00 00 00 00 00 00 00 00 00 00
       0.0 0.0 0.0 0.0
000070 00 00 00 00 00 00 00 00 00 00 00 00 00 00 00 00
       0.0 0.0 0.0 0.0

encoder_variable_selection.prescalers.pred.weight f4 [16, 1]
000000 7c 91 6c bf 86 97 78 bf 80 30 6f bd c8 6e bf 3e
       -0.9240949 -0.97106206 -0.058395863 0.37389207
000010 80 f7 87 3c 30 c3 52 3e 90 ea d1 be bc 61 95 be
       0.01659751 0.2058227 -0.4099927 -0.29176128
000020 58 52 78 bf 96 33 50 bf 88 83 87 3e 10 6f 43 bf
       -0.97000647 -0.81328714 0.26467538 -0.7634134
000030 dc eb f7 be 9a 78 77 bf 50 4d 85 3d 78 ca 3e bf
       -0.48422134 -0.966684 0.06508887 -0.7452769

encoder_variable_selection.prescalers.pred.bias f4 [16]
000000 30 b7 cf be 80 ea 38 bf 24 9b dd 3e 2e e8 39 bf
       -0.40569448 -0.7223282 0.43282425 -0.72619903
000010 58 80 66 3e 6e f7 00 3f e0 36 06 bd 02 6e 6d 3f
       0.22509897 0.5037755 -0.032767177 0.92745984
000020 e4 75 77 3f 50 1c 98 3d 0e c3 53 bf 38 6f 16 be
       0.9666426 0.07427275 -0.82719505 -0.14690864
000030 80 25 49 bd 5c 35 94 be 18 e9 8a be 60 dc 89 3d
       -0.04910803 -0.2894696 -0.2713096 0.06731486

static_context_variable_selection.fc1.weight f4 [32, 32]
000000 3e 06 c0 bd 67 16 1b 3e 2c 7a 6f 3e 6f 61 8b be
       -0.093761906 0.15145265 0.23386449 -0.27222773
000010 3f 9e 5d be d9 7c 83 be 34 dd bc bd 0b c1 3c 3d
       -0.21642397 -0.2568119 -0.09221879 0.046082538
000020 1e c3 7c be d4 2b 97 bd 69 87 d9 3e b1 f2 79 3e
       -0.24683806 -0.073814064 0.42486122 0.24408986
000030 2a ee d8 3c 71 cf 46 bd 09 a4 a7 3e f4 cb a6 3d
       0.026480753 -0.048537675 0.32742336 0.0814437
000040 95 12 98 bd f2 88 cb be 58 c3 d6 3e 1f 70 be be
       -0.07425419 -0.39752918 0.4194591 -0.37194917
000050 52 bf 47 3e 19 e1 93 be 24 e9 5f 3b 7d e8 8f bd
       0.19506577 -0.28882673 0.0034166062 -0.070267655
000060 03 fe 09 3d 12 c4 f5 be 04 ed 91 3d be 66 74 be
       0.03368951 -0.48001152 0.07125285 -0.23867318
000070 3d 7f a8 bc 40 18 0c 3f 31 60 12 bd c7 a4 20 be
       -0.020568484 0.547245 -0.035736267 -0.15687858
000080 0d 53 5d 3e 07 06 00 3f 1d 8e 4d 3d dc 4a cf be
       0.21613713 0.50009197 0.050184358 -0.404868
000090 3c 66 34 be 21 9c e7 be b2 47 1a bf 3e 93 12 3e
       -0.17617124 -0.45236304 -0.6026565 0.14313981
0000a0 56 f0 40 3e 10 11 4e 3e cb 89 6a 3e e0 89 0d 3d
       0.18841681 0.20123696 0.22904126 0.034555316
0000b0 7e 40 6b 3e ae 58 be bd 80 96 a7 3b 1f 81 c1 be
       0.2297382 -0.09294258 0.0051143765 -0.37793824
0000c0 ee d4 2a bd 7d b3 27 bd 94 6a 01 be c3 66 0f 3f
       -0.04170697 -0.040942658 -0.12638313 0.56016177
0000d0 f1 23 73 3e e0 5e af bc 1d d8 52 be f4 cb a5 3e
       0.2374418 -0.021407545 -0.20590253 0.32382166
0000e0 6b 6a 0f 3e b7 55 be be 90 ef 03 bf 60 ce 36 be
       0.14005439 -0.3717477 -0.5153742 -0.17852163
0000f0 2c 17 8d be a2 e9 c2 3e 52 33 9c 3e 43 4c b9 3e
       -0.2755674 0.38068873 0.30507904 0.36190996
000100 bd 9d cd be a2 5c e4 bd d3 d9 a3 3e cb f3 8d bd
       -0.40159407 -0.11150481 0.32002124 -0.069312654
000110 1a b6 51 3e 48 20 64 3e c6 3c ad be 63 1a a9 be
       0.20479622 0.2227794 -0.3383543 -0.33027944
000120 b1 29 b3 3d c0 27 6a be c7 33 d8 3c d9 46 b5 3e
       0.087481864 -0.22866726 0.026391877 0.35405615
000130 2d d0 8b be ff bf 2f 3b c4 80 d8 be 07 70 90 be
       -0.27307263 0.002681732 -0.4228574 -0.2821047
000140 39 62 5a 3e 72 3b 9e 3e 16 6d 38 3e 39 cb 81 3e
       0.21326531 0.30904728 0.18010363 0.2535036
000150 7b de 84 3d db c2 6b 3d d0 86 8a bc aa 76 f0 be
       0.06487747 0.057558876 -0.016909987 -0.46965533
000160 0e 63 36 be ca ca 9d bc 0c c5 6f bd c9 af 69 3e
       -0.17811224 -0.019261736 -0.058537528 0.22820963
000170 26 5f ba bd 3a 04 50 3e 2a 74 88 be 65 1e e7 3e
       -0.091001794 0.20314112 -0.26651126 0.45140377
000180 f1 fd 34 3d 7a 9d 1d 3e 7a 8b 4c 3e 61 b6 64 be
       0.04418749 0.15392104 0.19975081 -0.22335197
000190 98 df 1f 3e a3 01 8a 3e b1 2f 13 3e 18 1d 9f 3c
       0.15612638 0.26954374 0.14373662 0.019423053
0001a0 90 21 9e bd 60 56 43 bf 33 05 49 be 52 bb f1 be
       -0.07721245 -0.7630367 -0.1963089 -0.47213227
0001b0 d3 97 01 be b1 9d 8c be a0 5c dc be bb 7a 94 be
       -0.12655573 -0.2746406 -0.43039417 -0.28999886
0001c0 da 01 87 be 65 63 8d 3e cd a9 03 bc 3b b2 9c bd
       -0.263686 0.27614895 -0.008036089 -0.07651182
0001d0 21 46 01 3f db d7 93 be 04 63 0f 3f 53 fd 0e bd
       0.50497633 -0.28875622 0.5601046 -0.034909558
0001e0 19 36 06 3e be 57 79 3d 24 07 92 bd f8 5a 21 3e
       0.13106574 0.060874693 -0.07130268 0.15757358
0001f0 b3 d7 a9 bd a4 c9 81 3e 45 dd 4f 3e 4b 04 31 3e
       -0.082930945 0.25349152 0.20299251 0.17286794
000200 0d 9e 72 3d 23 5a ad 3c 1e 6f a7 3d 4f e1 10 3e
       0.05923276 0.021161145 0.08175491 0.14148448
000210 0f a6 8e 3e 5e a4 9b be 93 84 13 3f 7a fe 48 be
       0.27861068 -0.3039884 0.5762417 -0.19628325
000220 e2 9b c9 bd ba cb 4d 3d bf 14 83 3e 38 3c f2 bc
       -0.098441854 0.050243117 0.25601766 -0.02956973
000230 48 2f 0c 3f 60 39 07 3f c2 80 a6 bc 73 6e 0d be
       0.54759645 0.5282192 -0.020325068 -0.13811664
000240 e4 9c 9a 3e 6d bc a0 be ed 6e 60 3e 2a d2 79 be
       0.30197823 -0.31393757 0.21917315 -0.24396577
000250 17 49 00 bf d6 5a 70 3e 25 79 98 3d 69 63 31 3e
       -0.50111526 0.23472151 0.074449815 0.17323078
000260 1e 0e 18 3e b6 9d c7 be 08 fe 86 3e e3 37 2f bd
       0.14849135 -0.3898751 0.26365685 -0.042777907
000270 1d c2 14 be 6e fc 93 3e 00 23 ed bd 8a 64 c1 be
       -0.14527173 0.28903526 -0.11578941 -0.37772018
000280 c5 bf 93 3b 42 ac 0a be dc 21 86 bd e8 bb 27 bf
       0.0045089447 -0.13542274 -0.06549427 -0.655211
000290 07 b1 32 be 82 1f d6 bd 26 c8 b6 bd 89 52 2d bd
       -0.17450343 -0.104552284 -0.08924894 -0.04231504
0002a0 8b 26 ab 3e 1f 68 b1 be 5b 16 85 be 1d e0 88 bd
       0.33427843 -0.3464975 -0.25993618 -0.06683371
0002b0 5b 46 2e 3e 53 f0 a9 3e 1f 2e 87 be c4 c8 8d be
       0.17019026 0.33191165 -0.26402375 -0.27692235
0002c0 b4 90 9c 3e ff dc 04 3e 5d 07 70 3d 3a aa fd be
       0.3057915 0.12974928 0.058600772 -0.49543935
0002d0 10 2e 3d be d2 ca 36 be 9f 10 3e be 19 ec b6 3d
       -0.18474603 -0.17850807 -0.18561028 0.08931751
0002e0 97 af d3 bd c4 48 26 3d c0 5a 9f be 9a e5 10 3e
       -0.103362255 0.04059674 -0.31123924 0.14150086
0002f0 3f dd 4a 3d c9 04 29 be f0 07 69 bc 36 7f fa 3d
       0.049527403 -0.16505732 -0.014223084 0.12231295
000300 07 be 9c be 5b 66 a9 be bf 8d 87 3e 29 67 fb bc
       -0.3061373 -0.33085904 0.2647533 -0.030688839
000310 d6 80 0f be 42 59 0b bf f9 fb 06 be 38 91 da be
       -0.14013991 -0.5443307 -0.13182057 -0.42688918
000320 a8 81 5a bc 62 6b 7d be 32 5b 00 3e 19 fe f2 3e
       -0.0133365765 -0.24747995 0.12534788 0.47459486
000330 c1 6b bf 3c 08 4b be 3e 4b da 92 3e e2 7e 4d 3d
       0.02336681 0.3716662 0.2868217 0.050169833
000340 fc 8d 54 bc 9f 19 ac 3c 6b 2c cc 3d d4 12 9f be
       -0.012973305 0.02100831 0.099694096 -0.31069052
000350 c1 60 d1 be 49 e6 e0 be c7 46 2e 3d 3a b9 9b 3e
       -0.4089413 -0.43925694 0.042547967 0.30414754
000360 5e 91 bc be e5 91 7b 3e 2f 60 9e bd fb 9b ca be
       -0.36829656 0.24567373 -0.07733189 -0.3957213
000370 34 3a f5 be ab 10 86 be e3 d2 9f bd a3 27 53 3e
       -0.47895968 -0.26184592 -0.07803895 0.20620589
000380 39 4f 88 bd e1 2b a9 3c d3 0f 97 bd a1 ac 03 3e
       -0.066557355 0.020650806 -0.07376065 0.12858821
000390 a8 64 87 3e 28 34 55 3e f0 3f ab be 62 cb 98 3e
       0.26443982 0.20820677 -0.33447218 0.2984267
0003a0 8d a4 18 be 65 3b fd 3b 8b ca bc 3e 95 23 5a 3c
       -0.14906521 0.0077280276 0.36873278 0.0133141475
0003b0 02 3e c0 bd 25 7c 36 3e 0b a6 e2 bd da a3 13 be
       -0.09386827 0.17820795 -0.110668264 -0.14417973
0003c0 f2 61 5a be d8 47 63 be 31 ed 6f bc 7b 46 f6 bd
       -0.21326426 -0.22195375 -0.014643953 -0.12025162
0003d0 b7 4d 83 bd 8e 08 c8 bb fe 66 77 3e 03 f5 0a 3e
       -0.06411307 -0.0061045354 0.24160382 0.13570027
0003e0 c5 b5 37 be 05 36 73 be c0 f6 6a 3e 35 63 c1 bb
       -0.17940433 -0.23751076 0.2294569 -0.005901719
0003f0 45 21 54 be 3a a9 ad 3c f6 15 98 be 3b d3 0d 3d
       -0.20715816 0.021198858 -0.29704255 0.034625273

static_context_variable_selection.fc1.bias f4 [32]
000000 00 00 00 00 00 00 00 00 00 00 00 00 00 00 00 00
       0.0 0.0 0.0 0.0
000010 00 00 00 00 00 00 00 00 00 00 00 00 00 00 00 00
       0.0 0.0 0.0 0.0
000020 00 00 00 00 00 00 00 00 00 00 00 00 00 00 00 00
       0.0 0.0 0.0 0.0
000030 00 00 00 00 00 00 00 00 00 00 00 00 00 00 00 00
       0.0 0.0 0.0 0.0
000040 00 00 00 00 00 00 00 00 00 00 00 00 00 00 00 00
       0.0 0.0 0.0 0.0
000050 00 00 00 00 00 00 00 00 00 00 00 00 00 00 00 00
       0.0 0.0 0.0 0.0
000060 00 00 00 00 00 00 00 00 00 00 00 00 00 00 00 00
       0.0 0.0 0.0 0.0
000070 00 00 00 00 00 00 00 00 00 00 00 00 00 00 00 00
       0.0 0.0 0.0 0.0

static_context_variable_selection.fc2.weight f4 [32, 32]
000000 92 13 4d be d7 c6 04 3f 6f 65 6d 3c f7 c4 09 be
       -0.20026997 0.51865906 0.014489516 -0.13454042
000010 94 e3 ec 3c 47 72 3a bf 8f e7 b5 be fc c9 07 3e
       0.028917111 -0.72830623 -0.35528228 0.13260645
000020 7d e3 23 be 31 a8 1e 3f ed 75 87 3e 54 fd a3 be
       -0.16004749 0.6197539 0.26457158 -0.32029212
000030 77 7c 64 3d 31 92 03 bf 31 78 6c bc e1 00 2d be
       0.05578276 -0.51394945 -0.014432953 -0.16894867
000040 13 1f e2 3d fa e5 f6 bc 0c ca 1a 3d 70 75 3c 3e
       0.11041083 -0.030138958 0.037790343 0.18404174
000050 3f f0 20 be 2c ff d2 3a 7f 5f 68 3e 2c d6 50 bd
       -0.15716647 0.0016097776 0.22692679 -0.0509855
000060 af bc 80 3e 8b cc 8d 3d 3d df 3b be 27 bf 08 be
       0.25143954 0.06923779 -0.18346877 -0.13354169
000070 54 95 06 be c4 f7 67 3d c8 0e 89 3d 52 9c bb 3d
       -0.13142902 0.056632772 0.066922724 0.09160675
000080 a8 cb c0 3e 0d bd 85 be 26 97 3d bd 71 38 e5 3e
       0.37655377 -0.26120797 -0.046286725 0.44769624
000090 07 3b 4c bc be 4b 8f 3d 2b f5 05 bf 9d c0 1f 3e
       -0.012465245 0.069968686 -0.5232722 0.1560082
0000a0 f9 e0 11 be 9d 0b 4a be 88 25 ef 3d 1a ad 8c be
       -0.14245977 -0.19730993 0.116770804 -0.27475816
0000b0 6a e3 d4 bd 54 de 05 be e6 e6 a1 3e 35 d6 68 3e
       -0.10394938 -0.13073093 0.31621474 0.22737963
0000c0 a7 f6 89 3e fd 3d 57 3e b2 8f e4 be 91 e6 7f be
       0.26945993 0.2101974 -0.4464088 -0.24990298
0000d0 c8 a0 89 3e 76 34 22 3e 1d b4 fa 3d 76 c3 8f bd
       0.2688048 0.15840325 0.12241385 -0.07019703
0000e0 3f 15 8a 3e 85 3e 99 bd 1b b1 cc 3c b7 59 32 bd
       0.26969334 -0.07482628 0.024986794 -0.04354259
0000f0 45 46 81 bd a9 35 1b 3e 79 f1 b5 bd 36 9f 57 bd
       -0.06312231 0.15157188 -0.08883948 -0.05264207
000100 43 b3 f2 be 7e c5 57 3d c3 6c 5c 3e 6d 56 9e 3d
       -0.4740239 0.052678578 0.21525864 0.07731328
000110 7b 89 0a 3f 5d 18 cb 3d a8 6a 46 be 86 60 f8 be
       0.5411603 0.09916756 -0.19376624 -0.48511142
000120 60 6d ad bd 67 7a 8c bd a2 c5 35 3e 60 d9 70 3e
       -0.08468127 -0.06859284 0.17751172 0.23520422
000130 65 f9 09 3a 68 9d 0c 3d c6 02 05 3d a4 19 b8 3d
       0.0005263298 0.0343298 0.032473348 0.089892656
000140 7b d8 19 be 55 84 55 bc 30 5e 03 bf 1d 85 84 3e
       -0.15023987 -0.013032039 -0.51315594 0.25882807
000150 0a 80 49 bd 38 75 bf bd e8 a2 83 3e 82 06 82 3e
       -0.049194373 -0.093485296 0.25710225 0.2539559
000160 14 cb 43 be fe bf 39 be 6e 05 ac be 41 53 5e be
       -0.19120437 -0.18139645 -0.33597893 -0.21711446
000170 53 27 7b 3e 78 d4 cd 3e 7d a3 17 be 3e 00 c3 3e
       0.2452672 0.40201163 -0.1480846 0.38086122
000180 79 70 58 be 6c 4b 83 3d 23 27 4f 3e 4a 0e ee be
       -0.21136655 0.0641087 0.20229773 -0.46495277
000190 d8 26 8f be ca 67 74 be e4 dd c6 3e a2 e8 11 be
       -0.27959323 -0.23867717 0.38841164 -0.14248899
0001a0 cd 71 0a 3e 9c 5e 15 be 2d 5a 07 bf fa 75 ab be
       0.13519974 -0.14586872 -0.5287197 -0.33488446
0001b0 12 77 b4 3e ae 41 8e 3e d1 e6 b1 3d c5 66 e4 be
       0.35247093 0.27784485 0.08686603 -0.44609657
0001c0 59 97 0b bf 8e 66 f1 be 7b f5 8d be 48 b0 cb 3d
       -0.54527813 -0.47148556 -0.2772635 0.09945732
0001d0 e2 de 59 3e 63 ed eb be c1 12 8c 3d dc 3f 23 bd
       0.2127643 -0.4607955 0.068395145 -0.039855823
0001e0 6a 35 96 3e 1b de 26 be d7 3f cc be 6d 25 67 3c
       0.29337627 -0.16295664 -0.39892456 0.014108044
0001f0 6a a6 8d 3d a9 4e 0d 3e 59 1d 0e 3e d2 64 86 3c
       0.069165066 0.13799538 0.13878383 0.016405497
000200 fb 17 6d 3e 22 c9 23 bd d4 61 cf be 35 11 59 3e
       0.23153679 -0.039986737 -0.40504324 0.2119797
000210 91 47 92 bd fa ed b9 3d fa 84 d7 3e 9e e4 cf bc
       -0.071425565 0.090785936 0.4209364 -0.025377568
000220 93 3f c0 bd 56 3f aa 3e b0 73 bb bc f3 f8 86 3e
       -0.09387126 0.33251446 -0.022882313 0.26361808
000230 c1 12 54 be 7a 40 11 3f 74 17 a1 3d 5e b6 7b 3e
       -0.20710279 0.5673901 0.078658015 0.24581286
000240 c9 9f d0 3c 42 50 bf be 16 3c 0e be b5 cc df 3e
       0.025466816 -0.3736592 -0.13890108 0.43710867
000250 b2 a4 8f bd bf 4d 26 be 79 f6 5a be 03 95 ac bd
       -0.07013835 -0.16240595 -0.21383084 -0.08426859
000260 2c 6c 08 3e 85 dd 6b 3e 9f e8 29 bf df db 5a be
       0.13322514 0.23033722 -0.66370577 -0.21372937
000270 cb 7a 60 be ac d4 27 be af 15 01 bc 5c f6 86 be
       -0.21921842 -0.16389722 -0.007878705 -0.26359832
000280 a6 46 46 bd 51 29 e8 3d e8 18 08 bf b0 a3 89 3e
       -0.04840722 0.113360055 -0.53163004 0.26882696
000290 47 b2 ec 3d c4 b8 1f bd 81 16 ad bd 54 a2 39 be
       0.11557441 -0.038994566 -0.08451558 -0.1812833
0002a0 92 56 72 3e 3d b4 20 be a3 b3 89 3e 5f 87 de 3b
       0.23665836 -0.15693755 0.26894864 0.00679104
0002b0 2c 9a f8 3c 04 49 0a be 3a b1 cd be b7 e0 e8 bd
       0.030346952 -0.13504416 -0.40174276 -0.11370986
0002c0 67 c3 11 be e2 c2 a5 bd f2 91 d2 be 9e 4a bd be
       -0.14234696 -0.080938116 -0.41126972 -0.3697099
0002d0 af 67 a6 be 17 86 9d 3e 63 1a 00 be 01 86 4a be
       -0.3250098 0.30766365 -0.12510066 -0.19777681
0002e0 4a 4e 4f 3d d2 11 41 be 37 73 8f be c6 81 0a 3d
       0.05061177 -0.18854454 -0.2801759 0.033815168
0002f0 f4 81 4d 3e 1a 02 ec 3d 41 47 b6 3e ef c4 7d 3e
       0.20069104 0.11523838 0.35601237 0.24782155
000300 be 65 d3 3e 1c 3b a6 be 1a f8 8a 3e 33 16 51 be
       0.4128856 -0.32466972 0.2714241 -0.20418625
000310 56 fa aa bd d8 fd 10 bf d7 1f 3e 3d 90 bc c1 3e
       -0.08348529 -0.56637335 0.046417084 0.37839174
000320 1b 61 19 3f 0b ff df 3c ef 9b 90 bc 83 61 d5 be
       0.59913796 0.027343294 -0.01765248 -0.41675958
000330 32 7d 16 bf 25 7a bf 3e 03 2d ac 3e 3e 74 cd be
       -0.5878478 0.37397876 0.3362809 -0.40127748
000340 dc 49 b3 3d be 95 e0 3c dd e3 b6 3e de e9 12 3f
       0.08754322 0.027415153 0.3572072 0.57388103
000350 2b e3 bd bd 76 9b 0d 3e e1 b8 a1 3d 12 7e a2 bd
       -0.092718445 0.13828835 0.07896591 -0.07934202
000360 60 49 16 3e 2e be 54 bd 53 0d 3b 3e b2 24 26 3e
       0.14676428 -0.051939182 0.18266802 0.16224936
000370 94 54 61 3e 00 de 44 be dd 27 a4 be 56 65 32 3d
       0.2200492 -0.19225311 -0.32061663 0.043553673
000380 74 d0 64 bc 14 08 0c bc c5 3c d1 bb 36 c1 a7 be
       -0.013965715 -0.008546848 -0.006385418 -0.32764596
000390 26 fd 86 bd 19 88 0a bf 21 54 36 be 51 90 68 be
       -0.06591253 -0.5411392 -0.1780553 -0.22711302
0003a0 5a 9a e7 3e 5b f0 66 bd b2 29 43 be 9a 30 d2 3e
       0.45234948 -0.056381565 -0.19058874 0.41052705
0003b0 90 29 9e 3e a1 d4 06 3e 49 39 a8 3e 53 07 76 3e
       0.30891085 0.13167049 0.32856205 0.24026231
0003c0 29 4f de bb 11 74 f3 3e cf 43 14 3d 10 a6 37 bd
       -0.006784339 0.4754949 0.03619748 -0.044836104
0003d0 86 b0 ab 3e 86 39 d9 bc 19 d3 4d 3e 8f 16 d3 3d
       0.33533114 -0.026516687 0.20100059 0.10307037
0003e0 44 6e dc 3a 39 ea 98 be f4 ef ed 3d f4 1a 5c be
       0.001681753 -0.29866198 0.11618033 -0.21494657
0003f0 51 8c 2d be 6e f0 90 3c 2e 93 07 bf 6e 6a d7 bc
       -0.16948058 0.01769277 -0.52958953 -0.026295867

static_context_variable_selection.fc2.bias f4 [32]
000000 00 00 00 00 00 00 00 00 00 00 00 00 00 00 00 00
       0.0 0.0 0.0 0.0
000010 00 00 00 00 00 00 00 00 00 00 00 00 00 00 00 00
       0.0 0.0 0.0 0.0
000020 00 00 00 00 00 00 00 00 00 00 00 00 00 00 00 00
       0.0 0.0 0.0 0.0
000030 00 00 00 00 00 00 00 00 00 00 00 00 00 00 00 00
       0.0 0.0 0.0 0.0
000040 00 00 00 00 00 00 00 00 00 00 00 00 00 00 00 00
       0.0 0.0 0.0 0.0
000050 00 00 00 00 00 00 00 00 00 00 00 00 00 00 00 00
       0.0 0.0 0.0 0.0
000060 00 00 00 00 00 00 00 00 00 00 00 00 00 00 00 00
       0.0 0.0 0.0 0.0
000070 00 00 00 00 00 00 00 00 00 00 00 00 00 00 00 00
       0.0 0.0 0.0 0.0

static_context_variable_selection.gate_norm.glu.fc.weight f4 [64, 32]
000000 00 82 d2 bc 98 f5 5f 3e 58 93 22 3e 4c 43 30 be
       -0.025696754 0.2187103 0.1587652 -0.17213172
000010 86 65 60 3e 48 b9 27 bd 6a 3f 0f 3e 04 ad c9 3d
       0.21913728 -0.040948182 0.13989034 0.09847453
000020 1c 5f 1b 3e d0 20 25 bd 0c d6 9c 3d b8 b2 31 bd
       0.15173 -0.040314496 0.07658014 -0.04338333
000030 c0 d9 e1 bc 48 0c 1d 3e f0 3d 63 be 34 90 bf bd
       -0.027569652 0.15336716 -0.22191596 -0.093536764
000040 4a 13 35 be 3a 95 2f be 10 76 05 be 1e 53 7f 3e
       -0.1768314 -0.17146769 -0.13033319 0.2493405
000050 74 65 37 3e 6e 49 65 be b8 df 6f 3e a4 af 98 bd
       0.17909795 -0.22391292 0.23425186 -0.07455376
000060 de 77 01 3e d8 4b df 3d 70 ba 39 be 84 f5 2f be
       0.12643382 0.10903138 -0.18137527 -0.171835
000070 da 45 01 3e c0 5b b7 bb 58 63 08 3e 00 64 b6 bb
       0.12624303 -0.0055956542 0.13319147 -0.00556612
000080 a0 02 7c 3c b2 60 54 be cc fc 79 3e c8 c7 01 bd
       0.015381485 -0.20740011 0.2441284 -0.031684667
000090 60 ea 65 3d 64 e3 66 3e 10 bd 74 bd ee 4c 74 3e
       0.05613172 0.2254768 -0.059750617 0.23857471
0000a0 7e f2 6d be ca 01 2f 3e 0c 36 3f 3e 38 a9 36 be
       -0.23237035 0.17090526 0.18672961 -0.1783799
0000b0 a0 79 9e 3c 50 6b 48 3d c8 b8 28 be 04 3d 4f 3e
       0.019345105 0.048930466 -0.16476738 0.2023812
0000c0 e8 07 8a bd da 76 5c 3e 1e 92 00 3e a8 ed 8f 3d
       -0.06739789 0.21529713 0.1255574 0.07027751
0000d0 08 e6 b9 3d c0 52 5d bc a4 33 c2 3d 3a c1 60 3e
       0.09077078 -0.013508499 0.09482506 0.2194871
0000e0 a0 0f 07 3c c4 70 b7 3d 8a e9 15 be 14 b4 01 3e
       0.008243471 0.08957055 -0.1463987 0.1266635
0000f0 c8 55 1b 3e f4 88 79 3e 30 51 2e 3e 14 94 a0 3d
       0.15169442 0.2436865 0.17023158 0.07840744
000100 ae 90 46 be 68 e8 42 bd 10 55 e6 bc 80 2c 55 be
       -0.19391128 -0.04758492 -0.028116733 -0.20817757
000110 48 91 df 3d f8 2f cb bd a4 db 10 3e d4 dc 51 be
       0.10916382 -0.09921259 0.14146286 -0.20494395
000120 ea db 02 3e d4 1d 4a 3e ec 11 8b bd c0 42 46 3d
       0.12779203 0.19737941 -0.06790528 0.0484035
000130 20 6d 9c 3d 8e 38 26 3e f6 13 24 be f0 2e 99 bd
       0.076380014 0.16232511 -0.1602324 -0.07479656
000140 66 c9 29 3e 88 af 29 be 58 a5 49 3d a0 58 ad bd
       0.16580734 -0.16570866 0.04922995 -0.084641695
000150 0c 39 b9 bd f0 ae 8d 3c 28 68 e9 3d ba 20 29 3e
       -0.09044084 0.01729533 0.11396819 0.1651639
000160 50 51 a7 bc 2c cc 80 3d 46 89 7e be 38 f1 35 3e
       -0.020424515 0.06288943 -0.24857053 0.17767799
000170 fc 0f b4 bd a4 44 76 3e 00 ab 9d 3b 06 d5 69 3e
       -0.08792111 0.24049622 0.0048116446 0.22835168
000180 50 fa a6 3d c8 6e 72 3d b4 c1 5b 3e 7c 6d eb 3d
       0.08153212 0.05918768 0.2146061 0.11495492
000190 b0 cf ca bc 60 f7 84 bc 4c 24 5c be 50 58 ae bc
       -0.024757236 -0.016231239 -0.21498221 -0.021282345
0001a0 c2 28 03 3e 40 f8 85 3c 9a ff 31 3e 36 fc 0f 3e
       0.12808517 0.016353726 0.1738266 0.14061055
0001b0 54 ae 3b 3e cc ad 49 3e c4 ae 22 be 80 0a e1 bb
       0.1832822 0.19695204 -0.1588698 -0.006867707
0001c0 f8 3a 0d bd 90 a3 17 bd 16 3d 2e be 04 aa 81 3d
       -0.034480065 -0.03702122 -0.1701549 0.06331256
0001d0 10 4a ff 3c 54 6e a6 bd 44 20 55 3e 9c a5 52 3e
       0.031163245 -0.08126512 0.2081309 0.20570987
0001e0 92 06 73 3e 6c 86 e1 3d be d7 7d 3e d6 a1 43 3e
       0.23732975 0.11011967 0.2478933 0.19104704
0001f0 92 90 1f be 40 83 bb 3d 6e e3 61 3e 6a d1 52 be
       -0.15582493 0.09155893 0.22059414 -0.20587698
000200 f8 5a 5c 3e 5a 05 77 3e e8 f6 5a bd aa a1 19 be
       0.21519077 0.24123135 -0.053458124 -0.15003076
000210 26 0a 68 be 9a 21 22 be e0 c7 c3 bd 2e 74 71 be
       -0.22660121 -0.1583313 -0.095596075 -0.23579475
000220 06 fa 40 3e 1a 9f 69 3e c0 50 f1 bd 1e 84 45 be
       0.18845376 0.22814599 -0.1178298 -0.1928868
000230 6e 75 63 3e 48 be 12 3d a0 5c fd bd b0 59 06 3e
       0.22212765 0.035825998 -0.123711824 0.1312015
000240 ba a2 6f be 38 f0 95 bd 98 e3 20 3e 5e 2c 39 3e
       -0.23401919 -0.07321209 0.1571182 0.18083331
000250 f0 9c b8 bd b0 9c 75 3d c6 af 36 3e f4 42 38 3e
       -0.090143085 0.059963882 0.1784049 0.1799429
000260 9e b1 55 be c0 e0 fb bd 48 6d 43 be 20 18 b5 3d
       -0.20868537 -0.12298727 -0.19084656 0.08842492
000270 30 9a d0 3c 00 18 48 b9 1a 5a 30 3e c6 55 47 be
       0.025464147 -0.00019082427 0.17221871 -0.19466314
000280 a8 82 07 be 2a bc 5b 3e 32 49 1c 3e fc 90 19 be
       -0.13233435 0.21458498 0.15262297 -0.14996713
000290 e6 0a 3c be 58 f6 c2 bd c6 04 10 3e dc ef 97 3d
       -0.18363532 -0.095196426 0.14064321 0.074187964
0002a0 a4 8c 7c be 78 53 11 be a8 74 35 3d f0 a7 9e 3c
       -0.24663025 -0.14191997 0.044300705 0.019367188
0002b0 1e e3 12 3e 30 92 a3 bc 7c 81 d6 bd 4a 17 2f 3e
       0.14344451 -0.019967169 -0.10473916 0.17098728
0002c0 b0 bd 57 bd 4e 6c 29 3e 00 38 4c bc 14 99 22 be
       -0.052671134 0.16545221 -0.012464523 -0.15878707
0002d0 e2 dc 2a 3e 08 dd 5c 3e e8 a9 8d bd 52 49 45 be
       0.16685823 0.21568692 -0.06917173 -0.1926625
0002e0 86 18 7a be 42 fa 34 3e 62 8c 32 be e0 80 28 bd
       -0.24423417 0.17673591 -0.17436364 -0.04113853
0002f0 6c 41 f4 bd bc 51 33 be 34 bc 4d 3e 3c f3 ad 3d
       -0.11926541 -0.17511648 0.20091325 0.08493659
000300 0c bc 04 3e 80 5b 0a 3e 10 f7 ad 3c 64 a5 8e 3d
       0.12962359 0.13511467 0.021235973 0.069651395
000310 00 c1 00 3e 92 63 55 be 48 fc 35 bd fc b2 0a 3e
       0.12573624 -0.20838764 -0.044430047 0.1354484
000320 ee 95 7d be d8 72 ef 3d e8 13 8b 3d c0 7a 39 3e
       -0.24764225 0.116918266 0.06790906 0.18113232
000330 d4 7c 6c 3e 0a c4 2d be c8 c6 06 3e c4 5c 60 be
       0.23094493 -0.16969314 0.13161767 -0.21910387
000340 a4 4e da 3d 8c d0 49 be 1e 62 54 3e 34 fa 62 be
       0.10659531 -0.1970846 0.20740554 -0.22165757
000350 24 5a c8 bd 80 0f be 3d f8 2a 47 3d 80 a6 06 bc
       -0.09782818 0.092803 0.048624963 -0.008218408
000360 a2 23 75 3e 36 84 77 3e 08 ce 79 3d 12 cd 38 3e
       0.23939374 0.24171528 0.060987502 0.18046978
000370 34 41 c1 3d 3c 34 ae bd 86 a0 38 3e 10 60 87 bc
       0.09436265 -0.08506057 0.18029985 -0.016525298
000380 f8 39 73 3e 92 6c 54 be 4a 5c 50 be 18 fb 08 3d
       0.23752582 -0.20744541 -0.20347705 0.033442587
000390 38 58 cc bd 70 37 b6 bc 36 56 4e 3e be 7a 7c be
       -0.09977764 -0.022243232 0.20150074 -0.24656197
0003a0 a0 85 3d 3d 9c 6c 22 be 16 75 4b be 68 2c 28 3d
       0.046270013 -0.15861744 -0.19868883 0.041057974
0003b0 38 c5 67 bd 54 cb d7 bd 00 cc 41 3c 8a af 51 be
       -0.056584567 -0.10536829 0.011828423 -0.20477119
0003c0 96 db 78 3e 04 78 2b 3e 04 e7 e3 3d 00 cb ad bb
       0.24302515 0.16745001 0.11128047 -0.0053037405
0003d0 70 f0 1e bd 4c da 71 3e 74 7c d4 bd 30 7b d4 3d
       -0.038803518 0.2361843 -0.103753 0.10375059
0003e0 00 08 c2 bc 5a f1 24 3e 28 40 63 3d 40 5c e8 3b
       -0.023685455 0.16107693 0.055481106 0.007091075
0003f0 90 b9 fe 3c 80 20 47 3c ec 14 d7 3d 6a fd 59 be
       0.031094342 0.012153745 0.105020374 -0.21288076
